results/force/My Behavior/My Behavior-499967.pt (torch, 506173 bytes, 55 tensors)

discrete_act_size_vector f4 [1, 3]
000000 00 00 00 40 00 00 00 40 00 00 00 40
       2.0 2.0 2.0

network_body._body_endoder.seq_layers.0.weight f4 [128, 19]
000000 72 c8 08 3f 88 02 f1 bd 6c 9d fa 3e d6 b9 87 3e
       0.53430855 -0.11768061 0.48948228 0.2650897
000010 3b 1d 6d be a0 03 28 3e c7 71 8a bd d6 38 57 be
       -0.23155682 0.16407633 -0.067599826 -0.21017775
000020 83 21 7d be fc 9e ec 3d e9 b8 84 3d c6 2c bf be
       -0.24719815 0.11553761 0.06480581 -0.37338847
000030 b0 55 0b 3e 04 13 05 3f 1f ff 44 be 33 d9 ba 3e
       0.13606906 0.5198214 -0.19237946 0.36493835
000040 13 25 aa b7 ad a3 03 3e 1f 01 eb bd 96 52 5d 3e
       -2.0282843e-05 0.12855406 -0.11474823 0.21613535
000050 0e 9a 88 3e 96 d7 be 3d 7d 3c 87 bd 62 22 16 be
       0.26680034 0.093184635 -0.06603334 -0.14661554
000060 0f 25 83 be 5e 4b ba 3d 4c 52 80 be 22 f6 e2 3d
       -0.2561421 0.090964064 -0.25062788 0.11082102
000070 b4 8d 2b bc e4 c3 00 3d a2 2e e2 3e 55 b8 45 be
       -0.010470796 0.031436816 0.44176203 -0.19308598
000080 16 ff b1 bd e0 c9 6a be 50 20 ae bd 66 c6 ab 3e
       -0.08691232 -0.22928572 -0.08502257 0.33549803
000090 f6 80 4b bd ee 8f 34 bd d0 0e 51 3f e9 6c 92 3d
       -0.049683534 -0.044082575 0.8166323 0.07149679
0000a0 b5 95 81 be e8 07 82 be 9e 6a 41 3d a9 67 26 3d
       -0.2530953 -0.25396657 0.04722082 0.0406262
0000b0 0a 35 54 3e 54 bc ec be a2 5e ea 3d 18 6c 49 bd
       0.20723358 -0.46237433 0.11443831 -0.04917535
0000c0 cf 65 d8 3c 1e c2 4e 3e 71 f3 8a be 96 9e 17 3d
       0.026415734 0.20191237 -0.27138856 0.037016474
0000d0 ea 06 45 be 40 91 79 3e c9 32 5d 3e 80 5c 97 3e
       -0.19240919 0.24371815 0.21601404 0.2956276
0000e0 cf 9b 24 3e 71 87 c7 3e fb f8 a0 bd 0b 2e e4 bd
       0.16075061 0.3897052 -0.07859989 -0.111415945
0000f0 56 e5 b8 bd 3c e3 28 be a7 b6 82 3c ab 82 1e bf
       -0.09028117 -0.16492933 0.015956236 -0.61918133
000100 74 a4 21 be 1d 4b 4b be ac a3 72 bd f0 f5 49 be
       -0.1578539 -0.19852872 -0.05923812 -0.19722724
000110 de 1a a0 3d 11 c4 82 3d d4 61 ac 3d 0b ef 80 bd
       0.078176245 0.06385053 0.08417097 -0.06295594
000120 1b 9a 00 bf f6 f0 83 be 3c e6 d8 3c 64 90 55 be
       -0.50235146 -0.25769776 0.026476972 -0.20855862
000130 7c 73 1f be 48 93 ae bd 28 56 a4 3d 7a 28 ba 3d
       -0.15571398 -0.085241854 0.080242455 0.090897515
000140 34 5e 96 be a4 5b f0 3d de 0b c0 be fb ec d9 3c
       -0.29368746 0.11736229 -0.37509054 0.026602259
000150 3c c9 40 3e 7e 6c 26 3e 9f 51 a0 3d 64 7c 35 3e
       0.18826765 0.16252324 0.07828068 0.17723233
000160 de f1 34 be 40 0d 37 3e 62 96 ed bd 58 6a 8a bd
       -0.1767039 0.17876148 -0.11600949 -0.06758565
000170 bc 2d ef bd 04 9f c9 3c 35 77 eb bd 64 60 ba bd
       -0.11678645 0.024611957 -0.11497346 -0.09100416
000180 ca 1c ac bd 33 eb b4 3e 28 8a 88 3e 4b 64 6b be
       -0.084039286 0.35335693 0.26667905 -0.22987477
000190 8a d1 6a be fa eb 7c be 31 af 2e 3e 75 ff bd 3d
       -0.22931495 -0.24699393 0.17059018 0.0927724
0001a0 0a 9a a3 3d 62 1d 80 be a5 1e c5 3d 50 7c ba 3e
       0.07988365 -0.25022417 0.096249856 0.36422968
0001b0 95 c3 02 3f c0 52 99 bd a6 85 a7 3e d9 6a 7a 3c
       0.51079684 -0.074864864 0.32719153 0.0152842635
0001c0 2c f6 cf 3d 7a 8d cd 3d 18 37 d3 3d 07 b2 03 3f
       0.101543754 0.1003675 0.10313243 0.51443523
0001d0 1b 70 5a 3e 6a 6b 87 3d e2 3e ad bd 58 ae e9 3d
       0.21331827 0.066122845 -0.084592596 0.114102066
0001e0 95 7f 2f 3e 4d a8 9b 3d ef 74 98 be 20 d1 1a 3f
       0.17138512 0.0760046 -0.29776713 0.6047535
0001f0 d4 5c e3 3d 14 f7 e4 be fb 7f 4f be 26 66 2d 3e
       0.1110169 -0.44719756 -0.20263664 0.16933498
000200 c7 9c 47 be b5 cf e8 3d e6 88 cd bd 45 7e 13 be
       -0.194934 0.11367742 -0.10035877 -0.14403637
000210 88 75 9b 3e a6 af 57 3e 0c 7a d2 3e 87 fa ca bd
       0.30363107 0.21063098 0.4110874 -0.099110655
000220 f4 7a e2 bd 62 5e 2c 3e 3d 6b 98 3e 89 71 f9 3d
       -0.11058608 0.16832879 0.29769316 0.12179858
000230 2c e6 e9 3d c4 9c 0f 3f 49 ef ac bc 4a 71 05 be
       0.11420855 0.5609858 -0.021110194 -0.13031498
000240 97 48 0b 3d da c4 78 3e 26 f2 8e be fe ca c3 bd
       0.034004774 0.24293843 -0.2791912 -0.09560202
000250 f7 18 18 be 6c 59 2f 3d 11 e5 26 bb 4e 96 d2 be
       -0.14853273 0.04280989 -0.0025466124 -0.41130298
000260 f3 1d 31 bd 70 b9 a3 bd 0f 90 6a be de 11 43 3e
       -0.043241452 -0.07994354 -0.22906516 0.19049785
000270 b0 6c 3c bd 45 74 1c be 87 31 84 3e 85 ec 56 bc
       -0.04600209 -0.15278728 0.25819036 -0.013117914
000280 7e 94 77 3e 62 6c 31 be 6a b3 ca bb a7 e9 84 3e
       0.24177739 -0.17326501 -0.0061859386 0.25959513
000290 f9 14 80 bd 05 08 a8 bc 05 41 08 3d a2 a9 f7 3d
       -0.06254 -0.020511637 0.033265132 0.12092902
0002a0 55 11 84 3d 1a 4a 47 bd 10 7e c9 3c fe e9 f1 3e
       0.06448618 -0.048654653 0.024596244 0.47248834
0002b0 c9 3e e8 3c 3e 83 bc 3d 1f 5d 33 bd a4 e6 15 bf
       0.02835025 0.0920472 -0.04378998 -0.58555055
0002c0 20 7e c5 3b cc e3 60 3e 6a 9b 1c 3e f3 01 28 3d
       0.006026998 0.21961898 0.15293661 0.041017484
0002d0 ec da c8 be a4 5a 23 be 3c d0 a5 bd 3a eb 04 be
       -0.39229524 -0.15952545 -0.08096358 -0.12980357
0002e0 d6 b7 e7 3d e7 9d f1 be 16 e4 72 be 79 23 e8 bb
       0.11314361 -0.47190782 -0.2371982 -0.007084307
0002f0 70 b6 72 be bb ca de bc 35 ae b4 3e da 15 8d be
       -0.23702407 -0.027196279 0.3528916 -0.27555734
000300 d5 90 11 bd 86 4a cc 3e 7e 17 98 be a1 0c fb 3d
       -0.035538513 0.39900607 -0.29705423 0.12258268
000310 fb e6 0f 3d cc 92 33 be a3 dd 29 3d d8 1d cb 3d
       0.03513239 -0.17536467 0.041471135 0.099178016
000320 10 ba dd ba 06 b5 70 3e 62 fc 4c 3e 0c 6e 7c be
       -0.0016916413 0.23506555 0.20018151 -0.24651355
000330 26 ae 12 3e 04 4a ac bd d3 f1 d5 3c 53 99 46 3c
       0.14324245 -0.08412555 0.026116287 0.012121516
000340 24 76 79 be e6 5a d9 be b1 e0 65 3d 83 70 92 bd
       -0.24361473 -0.42452163 0.056122486 -0.07150366
000350 86 d2 06 be 45 2d a3 be cd 2b 98 3d 7b f8 b6 3e
       -0.13166246 -0.31870475 0.07430229 0.3573645
000360 19 2c 77 be c8 0e 10 3e b0 dc ff bc be 87 ef be
       -0.24137916 0.14068139 -0.031233162 -0.4678325
000370 a6 04 a7 3c 7e c3 0d 3e 1a f1 b3 3e 9a 8f c7 be
       0.020387959 0.13844106 0.35144883 -0.38976747
000380 db 56 f7 bc 8d ab 98 3e a3 59 be be 15 cc 69 be
       -0.030192783 0.29818383 -0.37177762 -0.22831757
000390 f4 fc 5b be f0 36 57 be 80 af 08 be de d2 03 3d
       -0.21483213 -0.2101705 -0.13348198 0.03218352
0003a0 88 7d 30 bd f9 f4 ae bd eb 89 60 3e 97 30 1a bf
       -0.043088466 -0.085428186 0.21927612 -0.6023039
0003b0 08 e3 1c bd b6 18 3e 3e f2 bb ab 3e 8d 85 9b bd
       -0.03830245 0.18564114 0.33541828 -0.07593832
0003c0 d0 f6 84 3d b0 cf f7 bd 70 17 49 be 17 4d 54 3e
       0.06492388 -0.1210016 -0.19637847 0.20732532
0003d0 54 f5 04 3e 5e 15 66 be 2d 6f 1e 3e ae 45 fd bd
       0.1298421 -0.22469088 0.15472098 -0.12366806
0003e0 f9 fe b1 3d e3 ec 5d be 48 93 10 3f ba 46 06 bd
       0.0869121 -0.21672396 0.56474733 -0.032782294
0003f0 ec 38 96 be d6 f1 25 be 67 35 9b be 0f 6a 56 3d
       -0.29340303 -0.16205534 -0.3031418 0.05234724

network_body._body_endoder.seq_layers.0.bias f4 [128]
000000 b2 a7 b1 3a 8c 4a 45 bb 9d 32 d6 ba 98 ce c5 bb
       0.0013554005 -0.0030104248 -0.0016341988 -0.006036591
000010 ea 4e d7 39 14 13 97 3b 9d be e4 ba 55 c8 84 bb
       0.0004106679 0.0046104286 -0.0017451827 -0.0040522018
000020 11 5a 97 39 53 cd af bb f8 3a bf bb 2c 15 55 bb
       0.0002886807 -0.0053650527 -0.005835887 -0.003251384
000030 cb c2 d1 3a 58 b3 94 bb 15 e0 98 ba 6f 75 d5 38
       0.0016003487 -0.004537981 -0.0011663461 0.00010178505
000040 c8 1e 19 bb a6 24 96 3b 37 17 7c 3b bb 9b ac 37
       -0.0023364294 0.0045820056 0.0038465986 2.0576515e-05
000050 3b 9d 8e ba d2 e7 69 3b 9c d0 f0 ba ee 5a b9 ba
       -0.0010880599 0.0035691154 -0.0018372717 -0.0014141479
000060 52 46 36 3a 01 8a 5f 3b e3 23 c8 bb b7 cb 19 3b
       0.00069532276 0.0034109356 -0.0061077937 0.002346737
000070 6f 91 cb 3a 5a 9d 7a 38 1f d6 6e 3a b0 7a d7 3a
       0.0015531013 5.975119e-05 0.0009110886 0.0016439762
000080 ec a2 9c 39 4d aa b8 ba 1a 5e 8c ba 72 9b 05 bc
       0.00029876025 -0.001408884 -0.0010709197 -0.008154737
000090 e3 dc 6c bb c5 9a 27 ba 4c 1e 6d bb 91 f7 05 bb
       -0.00361424 -0.0006393607 -0.0036181388 -0.002044175
0000a0 46 99 80 bb 3a 16 86 39 9a 2d 56 39 89 a9 9d 3b
       -0.0039245216 0.00025575032 0.00020425618 0.00481147
0000b0 1b ac 32 3b ff 92 1e 3b ac a5 91 ba e2 89 49 3a
       0.0027263227 0.0024196503 -0.0011111996 0.00076880876
0000c0 95 8d 9f 3b 47 31 88 3b 89 3f 6d 39 b9 09 30 3b
       0.004869173 0.004156265 0.0002262575 0.0026861264
0000d0 f7 e1 10 bb 1d fb 19 ba 2e 42 09 ba a3 e0 d9 ba
       -0.0022107342 -0.00058739056 -0.0005235997 -0.0016622733
0000e0 06 ca 4d bb 4e 39 5d 3b f3 f7 7e bb e1 ae bd ba
       -0.0031400933 0.003375608 -0.0038905113 -0.0014471674
0000f0 eb 70 c2 bb f7 70 b7 3a c7 6d 3e 3a 26 22 ac b9
       -0.005933871 0.0013995458 0.0007264283 -0.0003283184
000100 66 d4 82 3a 6e 7c 07 3a 85 f7 ce 3a c6 5b 66 bb
       0.0009981513 0.0005168383 0.0015790319 -0.0035149916
000110 52 8f 75 38 e2 8b 6e ba e1 66 4b ba 21 04 ee 38
       5.854603e-05 -0.00090998237 -0.00077591656 0.000113494934
000120 dc f5 05 bb a8 02 94 ba 24 af 4a ba 77 cc 13 3b
       -0.0020440733 -0.0011292296 -0.00077317865 0.002255229
000130 fd b1 a9 bb 3f 2d 9b ba 0a 69 53 3b 4d 4a 61 bb
       -0.0051786886 -0.0011839046 0.0032258653 -0.0034376562
000140 6a 0e 53 3a 1f d0 a4 3a 07 7b ee 39 7b ba ab bb
       0.0008051159 0.0012574232 0.0004548656 -0.005240736
000150 52 20 3b bb ac fd 21 3b d6 68 13 3a 5a 7c 01 3b
       -0.00285532 0.002471785 0.0005623227 0.0019757957
000160 a6 66 7f bb ef 0f 0a bb 00 d4 01 bb 40 bb c3 3a
       -0.0038971095 -0.0021066626 -0.00198102 0.0014933124
000170 1b f2 56 ba a8 6d 40 bb d1 ae f7 ba 3d 0b 8b 3b
       -0.00081995287 -0.0029362235 -0.0018896704 0.004243283
000180 74 ef 86 3b b0 a8 9e bb 3d 42 88 3b 32 ba 88 3b
       0.0041179005 -0.0048418865 0.004158287 0.004172587
000190 ea 2b 9d 3b e9 2f bf ba e4 22 32 3b 6c bf 60 bb
       0.0047964947 -0.0014586422 0.002718144 -0.0034293784
0001a0 11 9c 80 3b 03 3e 30 3a 5a 27 b1 3a a3 fd 81 39
       0.0039248546 0.00067231077 0.0013515756 0.0002479377
0001b0 30 17 a7 38 8a ca 09 3b f1 d9 bb b9 a5 6c c1 ba
       7.9674996e-05 0.0021025264 -0.00035829798 -0.001475711
0001c0 0e 07 dd 3b 31 80 8c bb d1 08 08 bc 95 09 0f bb
       0.0067452257 -0.0042877425 -0.008302883 -0.002182578
0001d0 bc 15 bf 39 6d 0a 9a bb b8 3b a1 bb 2e 97 58 bb
       0.00036446552 -0.00470095 -0.004920449 -0.0033049094
0001e0 cb df af b8 34 19 e3 39 9a c4 1d bb ca 4b 45 bb
       -8.386335e-05 0.00043315592 -0.0024073482 -0.0030104988
0001f0 99 43 0b bb 39 32 99 39 45 25 de 3a 65 a8 22 3b
       -0.0021250008 0.00029219853 0.0016948363 0.002481961

network_body._body_endoder.seq_layers.2.weight f4 [128, 128]
000000 42 6a 00 be e1 dd 22 3d 18 73 f3 3c 26 05 80 3d
       -0.12540534 0.03976238 0.029717967 0.06250982
000010 c6 6a ec 3d f5 5a 47 bd a8 f3 e3 bd 1d aa 2b 3e
       0.11543803 -0.048670728 -0.11130458 0.16764112
000020 ef 9a 3f be ce 51 7c bd f8 7d 48 bd 94 67 bd 3b
       -0.18711446 -0.061601453 -0.04894826 0.0057801697
000030 2f 5f a6 3a dd ac 2e be ca e6 f7 bd 6e ad b6 bd
       0.0012693162 -0.1705813 -0.121045664 -0.08919798
000040 19 86 9c 3d 1d 5c 11 3d a1 b9 dd 3d ac 27 8f 3d
       0.076427646 0.035488237 0.108264215 0.06989989
000050 0e b6 1b 3d 5b ce 89 3d 98 57 c8 3d 33 09 5e bd
       0.038015418 0.06728812 0.09782332 -0.05420799
000060 f4 ce 3e 3c bb 19 c5 3a c4 b6 b9 bc eb a4 ec 3c
       0.011646021 0.0015037576 -0.022670157 0.028887233
000070 0a f3 b8 3d ab cb d0 bc 86 72 97 3d 80 ca 0a 3e
       0.09030731 -0.025487741 0.073948905 0.1355381
000080 20 d4 c0 bc 79 9e 0a 3c c2 be 39 3d c1 84 9e bd
       -0.02353865 0.008460634 0.045347936 -0.077401645
000090 42 44 e8 3d f6 20 12 3d 48 61 8b bd 9d 24 08 3c
       0.11341144 0.035675965 -0.06805664 0.008309511
0000a0 0e f1 0a be 7a c9 c3 bd 65 9a 77 bd 29 ff 80 bd
       -0.13568518 -0.09559913 -0.060449976 -0.06298668
0000b0 3a 3b d2 3b 80 f7 96 bd bd da 6b bd ae 18 98 bb
       0.0064157518 -0.07371426 -0.057581652 -0.004641614
0000c0 4e fc 16 3e eb 14 12 3e e9 7f 93 bc ca 0e 0e bd
       0.14744684 0.14265792 -0.018005328 -0.034682073
0000d0 f2 12 0c 3e 3b e6 be 3d be 58 67 bc c2 c3 f1 bc
       0.13679102 0.09321257 -0.014120279 -0.02951229
0000e0 68 e7 b4 bd d1 70 bb 3d 5e 28 7e bd a5 9c 16 3d
       -0.088332 0.091523774 -0.062050216 0.03677048
0000f0 fc e2 8c bd 1b 13 48 3d 08 cd 43 ba 2c 17 ba 3d
       -0.06879231 0.048846345 -0.00074692117 0.09086451
000100 aa 41 c0 3e b2 71 74 3a 51 31 b7 bc 43 b1 09 3c
       0.37550098 0.0009324803 -0.022362383 0.008404079
000110 47 93 6f bc 44 f7 95 bd e9 0f 25 3c 96 d0 22 be
       -0.014622516 -0.07322553 0.010074594 -0.15899882
000120 3b d9 d1 bd d8 46 3b 3d 6a 02 23 be 30 8f 9a bd
       -0.102465115 0.04572186 -0.1591889 -0.07546842
000130 ee ed b0 bc c1 46 06 be 42 47 94 bd a7 ba 63 bc
       -0.021597829 -0.13112928 -0.07240154 -0.013899482
000140 ad c2 9b bc ab aa 95 bd 38 4e 34 bd a2 9f 7d be
       -0.019013727 -0.07307943 -0.044019908 -0.24767926
000150 fe 2e f4 3c 41 82 61 bd 01 b4 a9 3d 4a c9 26 3e
       0.029807564 -0.05505586 0.08286286 0.16287723
000160 fc 20 ce 3d 51 6f 8e bb f6 e4 80 3d 8a 3a 43 be
       0.10064885 -0.004346766 0.06293671 -0.190653
000170 6f b8 2f bd a6 09 c4 bd 36 bf 25 bd 39 f6 3b bd
       -0.0429005 -0.09572153 -0.040465556 -0.045889113
000180 5a 58 d8 bb 57 91 e0 bd a5 9c 47 3d 98 6f d7 bd
       -0.006602329 -0.109652214 0.048733372 -0.10519332
000190 fb a9 f0 bc 25 b3 24 3d cf 2b 03 bd 1e 29 b4 3b
       -0.029377928 0.040209908 -0.0320242 0.0054980656
0001a0 ed 13 e1 3a d0 0f 35 3d 9c 2d 7d 3d a9 fa 6b bd
       0.0017172076 0.044204533 0.061811075 -0.057612095
0001b0 31 f9 cd 3c 3c c7 17 be 6c 45 33 3d 2c 7f a6 bd
       0.025143238 -0.14822096 0.043767378 -0.08129725
0001c0 07 05 f3 3d ac b1 20 3e 1c 1a d2 bd c4 16 84 3e
       0.11866193 0.15692776 -0.10258886 0.2579862
0001d0 0c d9 cd bc db 49 23 bc 97 b9 55 3e 50 1e 87 3d
       -0.02512791 -0.009966339 0.20871578 0.065975785
0001e0 04 ef 82 3d 54 4d 91 3d ba 7c a7 3c 8f 48 1e bd
       0.06393245 0.07094827 0.020445216 -0.038643416
0001f0 81 27 2d be eb 62 87 bc 67 73 5d 3e fc 00 09 3d
       -0.16909601 -0.01652666 0.21626054 0.033448204
000200 0c 97 b0 3c a8 08 eb 3c 9e 03 a2 3d 00 ae b9 bd
       0.0215564 0.028690651 0.07910846 -0.09066391
000210 68 5a f6 3d 78 3d 29 bc ff 09 38 3d a0 f0 5d 3c
       0.120289624 -0.010329597 0.044931408 0.013546139
000220 0d ca 13 3d 45 e5 e1 bd 05 dd 98 3d 29 25 e0 bd
       0.036081363 -0.11030058 0.07464031 -0.10944588
000230 4d 0e 88 bd 5d 35 05 3e 02 fa 70 3d 1d 70 b5 bd
       -0.06643353 0.13008638 0.058832176 -0.088592745
000240 10 3b 70 3c c7 15 67 bd fa e4 86 3b b9 8d f6 3d
       0.014662519 -0.056417253 0.0041166516 0.1203875
000250 97 b5 10 bc 13 3b cb bc c3 87 9e 3d 0c 7b ce bd
       -0.008832357 -0.024808442 0.07740738 -0.10082063
000260 79 c5 7d be 3f ff a9 bd 2e 09 16 bd 34 f1 af bd
       -0.24782361 -0.083006375 -0.03662985 -0.08590928
000270 a7 ae 10 be f0 0a 84 bc bb 9a 43 3e ce 39 15 be
       -0.14129125 -0.016118497 0.19101994 -0.14572832
000280 2a e6 1a bd 14 8b c2 3d b4 ac 9d bd 54 40 96 bc
       -0.037817158 0.09499183 -0.07698956 -0.01834122
000290 7a ae 50 3e 4b 4e 6a bd 04 a2 ba 3d 72 be 3d 3c
       0.20379058 -0.057203572 0.09112933 0.01158105
0002a0 31 94 b2 bd fd 55 05 be 8b f2 44 bd f8 01 a5 bd
       -0.087196715 -0.13021083 -0.04808287 -0.08057016
0002b0 f0 a0 41 3c 7f 7c af bc df 79 19 3d 77 6e f6 3d
       0.011818156 -0.021421669 0.03746974 0.12032788
0002c0 2c b7 81 bb c9 aa 8b bd 5c b3 b0 bc 0e a6 51 bd
       -0.0039586034 -0.06819684 -0.0215699 -0.051183753
0002d0 b0 0f a9 bd a4 73 f0 3d 28 e2 c3 bd 79 31 dd bc
       -0.08254945 0.11740807 -0.0956462 -0.02700113
0002e0 ce 82 31 bd 22 43 05 be 32 3e 1d bb 75 93 8b 3d
       -0.043337636 -0.1301389 -0.002399337 0.068152346
0002f0 82 8c cd bd 02 bf 0f bd a0 c9 e6 3c c4 a2 e7 3d
       -0.10036565 -0.03509427 0.028172314 0.11310342
000300 c0 0b c2 bd 12 a8 2d be 0d 40 11 be 7d bb 9c bd
       -0.094748974 -0.16958645 -0.1418459 -0.07652948
000310 39 bc 94 bd e8 02 3e bd 91 37 40 bd 2b 04 b5 bd
       -0.07262463 -0.04638949 -0.046927992 -0.088386856
000320 88 b5 f1 3d c6 88 bc 3d 21 cd 95 bc 13 2d 1d 3d
       0.118022025 0.09205775 -0.01828629 0.038373064
000330 95 1d 96 bd 5a 46 46 3e c9 b4 f6 bc 82 a9 e4 3d
       -0.07329861 0.19362774 -0.030115502 0.111651435
000340 9f c5 4a bc c2 68 1e 3d 1f 58 66 bc 26 96 1a bc
       -0.012376218 0.038674124 -0.014059096 -0.009435212
000350 45 58 33 3e 9f 8c f0 bb 23 65 a7 bd 42 6f 8b bc
       0.17514141 -0.007340982 -0.08173587 -0.017020825
000360 a2 2b 37 3d 7d 24 85 bc 26 be 7b bc 8f df 65 3d
       0.044719346 -0.01625275 -0.015365159 0.056121405
000370 9c 46 b1 bb ad cd 07 3d 64 c1 0e be 5f fb fc 3d
       -0.0054100286 0.033155132 -0.1394096 0.12352633
000380 bf 0c d6 3d 1d 23 55 bd e8 69 62 3c 03 12 eb bd
       0.1045165 -0.05203544 0.013819195 -0.11478045
000390 c3 2f 02 bd 91 1a 00 be 68 84 d0 3d a3 47 23 bd
       -0.03178383 -0.12510134 0.101815045 -0.03986324
0003a0 b3 ed 01 3c 5e 19 42 bd 6e 30 28 3c 8f 60 b7 bd
       0.007930207 -0.047387473 0.010265453 -0.08953964
0003b0 0d 5c 23 3e ef c7 37 bd 2d 29 41 3d 58 fe 21 bd
       0.15953083 -0.044868406 0.04715841 -0.0395492
0003c0 63 6e 1c bc 80 5e 38 bd c6 c5 88 bc c3 d7 c6 bc
       -0.009547803 -0.045011997 -0.016695868 -0.024272805
0003d0 7d 77 46 bb 96 34 93 3c f8 d2 9f 3d 4e 09 dd ba
       -0.0030283623 0.01796941 0.07803911 -0.0016863735
0003e0 46 2c 38 3e 75 f7 b9 3d 9f 9c 87 3d cf 63 a2 bc
       0.17985639 0.09080402 0.0662167 -0.019822983
0003f0 b0 61 d9 bd 40 5e 6c 3d 18 7d fe 3d 14 da 30 3e
       -0.106143355 0.05770707 0.124262035 0.1727069

network_body._body_endoder.seq_layers.2.bias f4 [128]
000000 9d af 69 3a 43 51 0b ba 56 e6 9d 3a 5c 12 e1 3a
       0.0008914413 -0.0005314538 0.0012046795 0.0017171609
000010 ae 4d 97 bb af 58 14 b9 f0 3b a4 bb ad 66 6e bb
       -0.0046174144 -0.00014147417 -0.005012028 -0.0036377118
000020 6a 20 2c 3b 24 7d 8e bb 66 85 32 bb 37 32 37 b8
       0.0026264437 -0.004348414 -0.0027240156 -4.3677366e-05
000030 de b3 a5 3a 7a 67 e3 3a 0d 94 41 ba 83 87 20 3b
       0.0012642106 0.0017349564 -0.0007384427 0.0024494834
000040 4f 54 1e bc 0c 79 cb 39 98 c0 c6 ba 50 81 2e b9
       -0.009663655 0.00038809364 -0.0015163599 -0.00016642106
000050 60 41 bb ba 3f 89 9b 3b 19 89 40 3b 6a 8e 88 bb
       -0.0014286451 0.0047465856 0.0029378592 -0.0041673677
000060 bf b7 f3 3a 1c 16 e0 bb be 88 2a bb b6 6a cc b8
       0.0018594189 -0.006838573 -0.0026021446 -9.7473545e-05
000070 0e c6 34 3b b8 97 65 ba b2 1d 0a 3a 54 82 ae 3a
       0.002758387 -0.00087582646 0.0005268707 0.0013313987
000080 12 c3 03 bb 09 8f b1 ba 60 40 99 ba 30 57 46 ba
       -0.0020105285 -0.0013546656 -0.0011692159 -0.00075660925
000090 04 77 c5 ba b0 7a e0 bb 28 28 9c 3a a7 a3 73 bb
       -0.0015065377 -0.006850563 0.0011913823 -0.0037176402
0000a0 27 14 62 b9 44 bc 82 39 f2 17 08 bb ea 96 4a b9
       -0.00021560547 0.000249358 -0.0020766226 -0.00019320441
0000b0 c2 d4 03 3b e2 2b 08 bb cb d0 8f bb aa 7e fd 3a
       0.0020115827 -0.002077811 -0.0043889037 0.0019340117
0000c0 d2 03 e9 3a 53 16 2a 3a 1b 27 90 bb 48 b7 ba 3b
       0.0017777628 0.0006488312 -0.004399193 0.0056981184
0000d0 e9 23 af bb da 58 f7 3a 7a 88 80 ba cb 4b b7 3a
       -0.005344857 0.0018871084 -0.0009806298 0.001398438
0000e0 71 86 93 3a d2 69 80 ba 6b 55 35 3b e6 ef 2f bb
       0.0011255277 -0.0009797162 0.0027669321 -0.0026845871
0000f0 26 db c1 3b 42 ba b7 ba 1c d5 6a ba c9 f3 f8 3a
       0.005916017 -0.0014017301 -0.00089581474 0.0018993552
000100 7d 15 9f 3b 31 2a 70 bb 9e f6 3c bb 49 43 fe 3a
       0.0048548565 -0.0036646242 -0.0028833519 0.0019398715
000110 71 29 9d 39 0f 06 8c ba 34 5a ba ba 9f 09 db 3a
       0.0002997625 -0.0010682958 -0.0014217556 0.0016711241
000120 84 c7 54 3b e1 a5 94 3b 51 22 59 bb 83 85 0b bb
       0.0032467553 0.004536376 -0.0033132026 -0.0021289296
000130 b1 9b ab ba 6b 29 40 3b fc c3 90 3b 88 ac 5b bb
       -0.0013092664 0.0029321562 0.0044178944 -0.0033519585
000140 64 52 65 3b df 13 f9 3a 28 08 16 3b 6a 86 1a 3a
       0.0034991736 0.0019003114 0.0022893045 0.0005894663
000150 e7 d4 5b 3a 0b 30 35 bb 5f 1c 78 3a a6 d5 92 b9
       0.0008385912 -0.0027647044 0.0009464677 -0.0002800647
000160 44 06 ef b9 21 74 87 3a 65 76 ad b9 36 cc 83 3b
       -0.000455903 0.0010334292 -0.00033085342 0.0040221466
000170 76 26 71 ba 98 23 2f 3a 77 09 21 3b 65 c1 c6 3a
       -0.00091991515 0.0006681024 0.0024572292 0.0015163837
000180 f9 50 c7 3a ae 59 3e 3a b2 1a 2c 39 73 2c 87 3a
       0.0015206627 0.0007261288 0.00016413143 0.001031293
000190 07 fb 3d ba 72 4d 1a 3b 36 19 5d ba e0 0a 46 bb
       -0.0007247184 0.0023544696 -0.00084342377 -0.0030218884
0001a0 37 ab a2 3b 8d 08 77 3b 3e e6 a6 3a ba a6 a0 39
       0.004964258 0.0037694306 0.0012733412 0.000306418
0001b0 a0 61 78 bb 28 20 84 3b ab 3e 90 bb bd 17 92 3b
       -0.0037899986 0.0040321536 -0.004402002 0.004458396
0001c0 ef 27 37 bb 50 61 e5 b9 28 63 ef ba 88 e7 d4 3a
       -0.0027947386 -0.00043750787 -0.0018263804 0.0016243318
0001d0 dd 02 6a bb 19 e1 30 ba d8 85 29 bb 11 47 67 3b
       -0.0035707273 -0.00067474094 -0.002586713 0.0035290162
0001e0 7c 02 05 bb 5f eb 35 3c 40 3a 0a ba ff 29 14 3b
       -0.002029567 0.01110348 -0.0005272962 0.002260804
0001f0 2e 90 b7 3a 78 d6 50 bb 91 8b e2 39 ca 1f bf 3a
       0.0014004761 -0.0031866115 0.00043210064 0.0014581617

action_model._continuous_distribution.log_sigma f4 [1, 6]
000000 18 7f 86 bc 2c 60 35 bc 33 9b de bb ab fd a2 bc
       -0.016418025 -0.011070292 -0.0067934035 -0.019896349
000010 6e 31 dc bc be 86 2c bc
       -0.026879039 -0.010530172

action_model._continuous_distribution.mu.weight f4 [6, 128]
000000 dd f8 6f 3c a0 41 30 3d 10 51 e7 3c f2 16 0e 3d
       0.014646736 0.043031335 0.028236896 0.03468985
000010 0b 7d da ba cb ff 86 bc 8b a8 c5 3b c8 b6 c6 3b
       -0.0016669346 -0.016479393 0.006032055 0.0060642697
000020 9f dc ff 3b ba 39 a5 3c 92 af 96 3c 32 7f 38 3b
       0.0078082825 0.020169128 0.018394265 0.0028151986
000030 b8 13 fc 3c 63 a9 0e 3c c1 c7 12 bb d8 5e 95 bb
       0.030771121 0.008707377 -0.0022396895 -0.0045584254
000040 62 2f 47 bd c8 0f 14 bc 57 55 30 3c 0a 77 90 bb
       -0.048629172 -0.009036966 0.010762534 -0.004408722
000050 de 6d a3 3b 8f d1 f0 bc 94 61 14 bd 4c 88 9a 3b
       0.0049874624 -0.0293968 -0.03622587 0.004715955
000060 da 7b 85 bc 7d 6c 32 3c e8 e1 3e 3a 7e 80 d7 3b
       -0.016294409 0.010890123 0.00072815875 0.0065765968
000070 97 bc 2f bc f5 de f9 3b 79 7d 36 bc c8 8f 29 3b
       -0.010726116 0.0076254555 -0.011138313 0.0025873054
000080 6c ae 4e 3b ed ed a1 3c 31 a5 08 3b 05 aa ec 3b
       0.003153707 0.019766772 0.0020850415 0.0072224163
000090 6d a4 2c 3c fb c0 18 3c 28 32 bf 3c 19 37 37 3b
       0.010537249 0.009323354 0.023339346 0.0027956425
0000a0 c3 de 4c 3c d6 3a 1a 3c e8 ae fd 3b 86 6a 88 bc
       0.012504282 0.009413442 0.0077417977 -0.016652357
0000b0 11 42 49 bc 43 30 95 3c de 81 af bc 36 e8 9d bc
       -0.012283818 0.01821149 -0.02142423 -0.019275766
0000c0 e1 95 84 3c 7c 62 43 3c 44 39 ab 3c ca 77 29 bc
       0.01618475 0.011925336 0.02090133 -0.010343501
0000d0 a1 e1 08 3d 64 a4 e1 bb 99 20 b3 3c 17 0f a7 bc
       0.0334183 -0.006886052 0.02186613 -0.020392938
0000e0 c7 4f 66 3b d5 11 89 bc 9c fe d7 bb 09 54 58 3b
       0.0035142766 -0.016732136 -0.006591631 0.0033009073
0000f0 cf 71 7e 3c bf 97 30 bb a2 fd 6c bc 65 fc 97 bc
       0.015530064 -0.0026945916 -0.014464768 -0.018552968
000100 46 43 57 bb 82 25 51 bb fb 63 24 bd 79 48 00 3d
       -0.0032846495 -0.0031913226 -0.04013441 0.031319115
000110 81 4d 64 3c 38 0e 2b 3c eb 09 7c 3b e2 c2 21 3b
       0.013934494 0.010440402 0.003845806 0.002468281
000120 2d 90 2a bc 6e 37 71 bc 37 f5 2b bd 6b 4b ee 3c
       -0.010410351 -0.014722688 -0.041981902 0.029088696
000130 42 11 c6 ba d3 92 a3 3b 34 3f 4c bc 75 05 3d 3c
       -0.0015111344 0.004991868 -0.012466241 0.011536946
000140 2e 35 8e 3c 1a 54 1b 3d 39 03 21 bb 8a f0 5f bc
       0.017359342 0.037922002 -0.0024568571 -0.013668189
000150 3f 7f 81 bc 54 09 03 3d 85 69 11 bd ec 94 85 bc
       -0.015807746 0.031991318 -0.035501022 -0.016306363
000160 af ec 2e bc 41 ef c4 bb a7 c8 08 3d 53 61 a8 3c
       -0.010676547 -0.0060099666 0.033394482 0.02055422
000170 6d 78 ad bb bf 74 a6 3c 3a 1c c5 bb fb 74 89 bc
       -0.005293897 0.02031934 -0.0060153278 -0.016779413
000180 d1 14 b4 3c 1d 7b 0b 3d dc 70 b3 3c 55 a1 7c 3c
       0.021982582 0.034052957 0.021904401 0.015419324
000190 a7 f0 a1 3c 84 89 18 bb da d0 e3 bc 89 aa 8e 3c
       0.019768072 -0.0023275325 -0.02780955 0.017415302
0001a0 42 1c d5 bb bb f0 85 bc 39 b6 83 bc 2f 31 4e bc
       -0.0065036127 -0.01635014 -0.016078101 -0.0125849685
0001b0 7e 51 1e 3b c0 9c 21 bc 43 dd ba 3c dd 04 47 bc
       0.002415746 -0.009864032 0.022810584 -0.012147156
0001c0 63 71 8f 3b 38 38 9f bc 6c 10 a5 bc db e8 79 3c
       0.0043775304 -0.019435987 -0.020149432 0.015253271
0001d0 3e 49 e1 bb e4 c3 d2 3c 42 97 c8 bb be 4e 81 bc
       -0.006875186 0.025728174 -0.006121547 -0.015784618
0001e0 3f 83 53 3c e6 fe f2 3c a2 57 79 3c 6e 17 9d bc
       0.0129097095 0.02966256 0.015218647 -0.019176211
0001f0 ae 87 bd 3c fc 18 1b bb c6 0a 90 bb 72 c0 3f bd
       0.023135986 -0.0023666015 -0.0043958155 -0.04681439
000200 b0 12 06 3c 67 16 9a 3c d8 71 15 bc c5 55 4c bc
       0.008183166 0.01880951 -0.009121381 -0.012471621
000210 6a 72 14 bd 8e 40 f8 b9 56 e7 5c bc 7e 81 b4 3c
       -0.036241926 -0.00047350343 -0.013482889 0.022034403
000220 c5 f2 72 3c b0 65 ef bc af ef 72 3c 1b be cc bc
       0.014828389 -0.029223293 0.014827653 -0.024992993
000230 ae aa 05 3d 93 9f 04 3b 20 12 f6 3b 7c dd cf 3b
       0.032633476 0.0020236715 0.007509485 0.0063435417
000240 7c ad 8c 3c df 11 94 bc 79 38 86 3b 0f e9 cf b9
       0.017172568 -0.018074928 0.0040960875 -0.0003965576
000250 49 15 be 3c 18 2c 3d bc 59 48 6a 3c 3f 09 d2 bb
       0.023203509 -0.011546157 0.014299476 -0.0064097936
000260 61 b1 8c 3b 2b 73 4d bb 8d 59 f4 ba 93 bf 93 bc
       0.004293606 -0.0031349163 -0.0018642411 -0.018035686
000270 87 47 ae b9 a9 3b fa ba 27 3b 19 3c 97 fe b1 bc
       -0.00033241158 -0.0019091266 0.009352482 -0.021727843
000280 21 76 a5 3b c5 fa f8 3b e2 d5 01 3c 9e f4 10 3c
       0.0050494825 0.0075982534 0.007924529 0.008847384
000290 1f cb 4d 3d 5c f7 da bb 2e a0 e3 3c 24 4a 52 bc
       0.05024254 -0.0066823196 0.02778634 -0.012835059
0002a0 d6 61 9f b8 a7 b3 82 3b 45 3f 22 bc a4 97 a0 3b
       -7.599934e-05 0.0039887014 -0.00990278 0.0049008895
0002b0 dd e1 b1 bc 2a 96 41 bc 46 bc 71 3c 06 fb ab bb
       -0.021714145 -0.011815587 0.014754361 -0.00524843
0002c0 14 aa 86 ba 43 f4 2f bb bc fa ab 3c 11 60 e4 3c
       -0.0010274076 -0.0026848472 0.020993583 0.02787784
0002d0 b4 41 a6 3c e3 25 c0 ba 84 1e 0c 3d 04 14 34 bd
       0.020295002 -0.0014659729 0.03420879 -0.0439644
0002e0 db 45 b8 bc 55 9c 9d 3c 46 70 ac 3c 5c d7 bf bb
       -0.022494247 0.019239584 0.02104963 -0.0058545303
0002f0 1f 93 53 bc e3 21 3f 3b 4b 37 7a bb 09 61 c6 3b
       -0.012913494 0.0029164485 -0.003817993 0.006054048
000300 58 e3 24 3c 9c a2 c9 3c d5 a1 a2 bc 4c 5f 84 3c
       0.010063969 0.024613671 -0.019852558 0.016158722
000310 d2 f9 74 ba 9a 27 f5 3c 68 51 0c bd 53 2f 90 3b
       -0.00093450875 0.02992611 -0.034257323 0.0044001727
000320 50 42 ba 3c be 14 d0 39 d5 6a 0c bb 90 1e ba bb
       0.022736698 0.00039688306 -0.0021425982 -0.005679913
000330 11 ef 09 bc 6e 8c 0d 3c ed fa a9 bc f5 71 19 3c
       -0.008418814 0.008639438 -0.020749534 0.009365548
000340 2c 26 3f bc e7 68 cf bb 3e e4 9f 3c 95 0a 5a bc
       -0.011666816 -0.006329644 0.019518014 -0.013308187
000350 28 15 40 3c 02 ee f2 3c 0a 0d a8 3b da d6 76 ba
       0.011723794 0.029654507 0.0051285075 -0.00094161707
000360 55 06 90 bc ce 7e 17 3b 7e 67 62 3c 08 70 ee 3b
       -0.017581144 0.0023116353 0.01381862 0.0072765388
000370 ee a7 bb bc f1 72 fc bb f0 e3 78 bc 70 58 de 3b
       -0.022907224 -0.007704132 -0.015191063 0.006785445
000380 7c be c8 3c 5a 1e 09 3c 81 a4 1e 3b af ce eb 38
       0.024504893 0.008369053 0.0024206939 0.00011244171
000390 74 ca b9 bc da 85 08 bd bb 7d e8 bb fe 83 4e bc
       -0.022679545 -0.033330776 -0.0070950664 -0.012604712
0003a0 56 1e ee 3b df 5a a5 bb 34 c0 dc bc 8e c3 86 3c
       0.0072668 -0.005046233 -0.026947118 0.01645067
0003b0 f1 25 cb bb 70 1b 49 bc c1 37 a3 bb 98 e4 8f bc
       -0.0061995913 -0.012274608 -0.0049810116 -0.017565057
0003c0 20 fe 9c bc ea d0 7f bc 8a ca 43 3c e1 eb a8 3c
       -0.019164145 -0.015613774 0.011950145 0.020620288
0003d0 aa 18 6d bc a6 c6 37 3c 66 a6 0e bc 42 0f a7 3a
       -0.014471212 0.011216795 -0.008706665 0.0012745636
0003e0 55 ba 8f bc 49 90 a3 bb d6 85 ef b9 ae bf 3b bb
       -0.017544905 -0.0049915654 -0.00045685348 -0.0028648186
0003f0 f0 92 ca 3a 47 b4 2c 3d 48 fa 8e bc 72 65 89 bc
       0.0015455168 0.042164113 -0.017453328 -0.016772006

action_model._continuous_distribution.mu.bias f4 [6]
000000 f7 d9 3c bb 8f 57 e0 b9 09 1f a1 3a 92 b1 09 bb
       -0.002881644 -0.00042789846 0.0012292574 -0.0021010381
000010 3d 5c 43 bb 54 91 29 3b
       -0.0029809617 0.0025873976

action_model._discrete_distribution.branches.0.weight f4 [2, 128]
000000 9c fc ba bb f4 87 59 3b 1d 04 b7 bb 0d 12 2f 3b
       -0.005706383 0.0033192607 -0.005585207 0.002671364
000010 db 25 58 3c 92 f0 63 3c 5c c4 2d bb cd f3 30 bc
       0.013192619 0.013912337 -0.0026514744 -0.010800314
000020 35 5a 8a b8 11 92 75 bc 55 01 36 bc cb ee 88 bc
       -6.597155e-05 -0.014988438 -0.011108716 -0.016715428
000030 9a 93 4d bc a9 0a b5 bc d6 dc a6 3c c1 90 87 3b
       -0.012547398 -0.02209981 0.020368975 0.004137129
000040 d9 1f a6 bb 9a be cd 3a ae b6 6b 3a 12 aa f9 b9
       -0.0050697145 0.0015697062 0.000899176 -0.00047619693
000050 e0 2f 1a 3a 2a 21 3d bc 2f f3 69 bb 0e 97 16 3c
       0.0005881768 -0.011543551 -0.0035697927 0.009191288
000060 18 f8 05 3a 16 1c 5d bc 50 ab e3 3b cb 39 16 bc
       0.0005110516 -0.013495466 0.0069479123 -0.009169052
000070 88 91 b9 3a 6a 29 a0 3b 73 e9 14 bc cc d2 bb bb
       0.0014157752 0.0048877494 -0.009088862 -0.005731916
000080 4e 15 3f 3c 00 99 75 bc 9a ae 38 bc b5 3a ab bb
       0.011662794 -0.014990091 -0.011272097 -0.0052255043
000090 8f 42 d7 ba cb 38 86 bc 29 24 fc 3b 05 4d db ba
       -0.0016423034 -0.016384503 0.0076947403 -0.0016731328
0000a0 41 53 33 3c ea 2a af 3b 0e 1a b7 3b 6e e0 33 bb
       0.010945142 0.005345692 0.0055878228 -0.0027447003
0000b0 41 69 29 3b cc 1b 61 bb 2c 06 5f 38 f1 4f 90 3b
       0.002585009 -0.0034348844 5.317309e-05 0.004404061
0000c0 c0 cf 49 3b 47 94 8e bb 2b 4d b0 3b 7e 30 7d bc
       0.0030793995 -0.004351172 0.005380293 -0.015453456
0000d0 40 47 3f 3b 9b 31 c3 bb ea e6 bb 3b 23 b8 9d bc
       0.0029186755 -0.005956841 0.005734314 -0.019252842
0000e0 a0 91 17 bc 77 1b c3 3c a2 ce f1 bb e3 d0 2f 3c
       -0.009251028 0.023816807 -0.007379369 0.010730955
0000f0 bf ff 07 3c 92 00 e3 bb b8 8a 6a 39 6e ce 68 bc
       0.008300721 -0.006927558 0.00022367656 -0.014209373
000100 89 97 f5 ba 78 03 a2 ba f5 31 5d 3b 02 81 87 bb
       -0.0018737178 -0.0012360653 0.00337517 -0.004135252
000110 f8 cf 93 bb 48 44 8d bc 63 af 99 3b 59 77 c3 bb
       -0.004510876 -0.017244473 0.004690097 -0.005965155
000120 0a 31 dd 3c d6 09 f0 bb 12 1f b2 ba 85 02 43 3c
       0.027000923 -0.0073253913 -0.0013589582 0.011902456
000130 dc 04 89 3b 16 b7 6b 3c a6 42 54 ba c2 a1 b0 3a
       0.0041814875 0.014386913 -0.00080970896 0.0013475942
000140 6c ee 4b bc e1 6d 94 bc bf ff d6 ba 7c 15 85 3b
       -0.012446981 -0.0181188 -0.0016403123 0.004061399
000150 0f e7 99 39 b1 e4 93 3b 77 4d 7c 3b 5f 82 71 3b
       0.00029354586 0.004513346 0.003849832 0.003685139
000160 25 cd 4b 3c a5 8c 15 3c c7 dd 20 bc 93 09 c1 ba
       0.012439047 0.009127771 -0.009818501 -0.0014727585
000170 dd ad cd 3a f7 49 55 bb 60 5a b3 3b 70 90 30 3c
       0.0015692074 -0.0032545307 0.00547342 0.010776624
000180 ed 5c 5e 3b 4c a2 f6 bb 38 6f 04 3c 8c d2 06 3c
       0.00339299 -0.0075266715 0.008083157 0.008228909
000190 66 a6 6d 3b c5 68 18 3c 05 b5 ad b9 23 3e 34 bc
       0.0036262511 0.009302323 -0.00033132 -0.011001143
0001a0 fe 3d 9a 3b 17 a6 e4 3a 25 e4 75 ba 82 74 df 3c
       0.004707097 0.0017444518 -0.00093800045 0.027277235
0001b0 ee 1c b2 bb 61 72 2c bc 70 70 30 bb 4e ca 02 3b
       -0.0054355776 -0.010525317 -0.0026922487 0.0019957009
0001c0 f1 37 6a 3b 51 1c 2a 3a bc ca a6 3a f5 f9 42 bc
       0.003573891 0.0006489205 0.0012725214 -0.011900415
0001d0 5a 69 09 bb 69 ec ae bc fe 92 80 bc da 7d ad 3b
       -0.0020967335 -0.021352964 -0.015695091 0.0052945437
0001e0 93 92 11 bc 24 5a 06 bd ed e6 06 3c 07 e7 02 bc
       -0.008885044 -0.03280081 0.008233768 -0.0079896515
0001f0 ee 30 c1 bb ce 33 90 bc 75 25 b1 bb c6 61 33 3c
       -0.0058957255 -0.017602827 -0.0054060766 0.010948604
000200 56 c8 bb 3b e3 23 d8 bb 64 9c df 3b 3f e5 f1 3b
       0.005730669 -0.006596075 0.006824063 0.0073820646
000210 93 d2 11 3c bc ca ba ba dd fb 8c 38 ae 2f 82 bc
       0.008900302 -0.0014251093 6.7226334e-05 -0.015891876
000220 9b a7 08 3c e4 0a a9 bc ce e0 ca 3a c6 8b 1e ba
       0.0083407415 -0.020635076 0.0015478374 -0.00060480495
000230 42 d7 8a 3b bb 97 b3 ba 93 f6 98 3b 9c ca 1d 3c
       0.0042370865 -0.0013701835 0.004668066 0.009630825
000240 24 b1 12 bc 12 f5 d7 39 63 78 45 3c aa d9 f7 3b
       -0.008953366 0.00041190587 0.012052628 0.0075637894
000250 7d ea 29 bc 66 e6 c7 ba 6b 56 9f bb 28 ce ab bb
       -0.010370848 -0.0015251159 -0.0048625967 -0.0052430816
000260 8b 8a 4c 3b c6 ea 9a bb 6b fe a5 39 a9 f1 ac ba
       0.0031210508 -0.004727694 0.0003166081 -0.0013194579
000270 bd e5 89 bb e5 e6 2d ba 13 6f 18 3b cb 42 21 bb
       -0.004208295 -0.0006633832 0.0023259565 -0.0024606462
000280 0b c8 ff 3a ce 9f b6 bb b9 96 ab ba c8 76 3d 3c
       0.0019514574 -0.0055732494 -0.0013091184 0.011563964
000290 fe 59 2f bc 06 90 cb bb 1a 81 a6 3b 8c 09 f9 ba
       -0.010702608 -0.0062122373 0.005081308 -0.0019000038
0002a0 30 66 64 bc 95 46 7b bc 94 ab 36 3b 0a 86 97 ba
       -0.013940379 -0.015336652 0.0027873265 -0.0011560332
0002b0 03 54 53 3c 3e ba 8a 3b 6a b1 15 ba 2f 2a 74 bb
       0.012898448 0.0042336276 -0.00057103357 -0.0037256589
0002c0 a0 dc 55 3b fe 6a fb 3c 88 73 62 bb 2c 90 b8 bc
       0.0032632723 0.030690666 -0.0034553725 -0.022529684
0002d0 d2 c5 80 3c 70 cb dc 3b 74 0f 98 bc b7 7d a8 bb
       0.015719328 0.006738119 -0.018562056 -0.0051419395
0002e0 05 c1 83 3b 17 9b 31 bb 5d 43 28 bc 02 e1 34 bc
       0.0040208125 -0.0027100497 -0.010269967 -0.011039974
0002f0 e6 78 c4 bb 67 43 a1 bb 59 fc 7b bb 38 b5 45 3c
       -0.0059958575 -0.004921365 -0.0038449971 0.012067132
000300 f4 8a 2c bc c9 bb 0d 3c 54 31 ae bc a0 00 b8 3a
       -0.010531176 0.0086507285 -0.021263756 0.0014038272
000310 9b 71 e7 3b c2 55 56 bc 05 9c b9 bc 03 e9 ba 3b
       0.0070631034 -0.01308197 -0.022657404 0.0057040467
000320 fb 49 89 3b 8a 10 22 3c 70 5d 8d bb 21 1a 7b bc
       0.0041897274 0.0098916385 -0.004314117 -0.015326054
000330 8a fc 1e bc fb 02 0a 3c 2e df 0b bc 31 87 5e bb
       -0.009703765 0.008423562 -0.008537097 -0.0033955092
000340 f9 d2 c8 bb 82 c9 64 3c 03 f4 88 3b 02 1b 5e 3b
       -0.0061286655 0.013964059 0.004179479 0.003389061
000350 c1 23 19 3c 55 ba cc 3b fc c3 7e 3b b7 df 96 bb
       0.009346903 0.0062477984 0.003887414 -0.0046043056
000360 6c 45 01 3a ac 94 84 39 bb 47 86 3c ba 8f 13 bb
       0.0004931304 0.0002528777 0.016391626 -0.0022516088
000370 a5 a7 0f bc 0b 39 97 bc 6c 7e 02 bc b9 bf a4 3c
       -0.008767997 -0.018459817 -0.007964712 0.020110952
000380 54 1d 66 3b 9c c8 45 3c a1 e4 dd ba 8d 2c a1 bc
       0.0035112696 0.012071755 -0.0016929099 -0.019674564
000390 c8 06 2e bc 00 c5 85 3b 7d ac 53 3c 6c 23 69 3b
       -0.010621734 0.004082322 0.012919542 0.0035574092
0003a0 78 c2 88 3b 7a ce 90 b9 f7 b7 49 bb 69 33 28 3c
       0.004173573 -0.00027619657 -0.0030779818 0.010266163
0003b0 70 c9 c8 bc e5 7d a0 39 69 fa a7 bb 4d 8d 2c bc
       -0.024510115 0.00030611377 -0.0051262868 -0.010531736
0003c0 78 b9 58 3c 65 c6 de 3a ce 33 68 3b cc a7 07 bc
       0.013227813 0.0016996382 0.0035431269 -0.008279752
0003d0 06 f5 12 39 f8 86 f5 3a 95 b8 80 3b e3 d7 5f 3c
       0.00014014923 0.001873224 0.003928254 0.013662311
0003e0 5b c2 c9 3a 7e 1f eb 3c 76 9f d7 3b 90 18 cb 3a
       0.0015393005 0.02870154 0.0065802885 0.0015494991
0003f0 66 a5 34 bc fe f7 4b 3c 30 65 6c bb 46 a2 7a bb
       -0.011025762 0.012449263 -0.0036071055 -0.0038243695

action_model._discrete_distribution.branches.0.bias f4 [2]
000000 7d 27 70 bb 7a 27 70 3b
       -0.003664463 0.0036644624

action_model._discrete_distribution.branches.1.weight f4 [2, 128]
000000 76 bf 29 bc 76 4b 98 3b 7a 24 eb bb f1 c6 b1 3b
       -0.010360589 0.0046476675 -0.007175979 0.005425327
000010 41 21 31 bc 36 ba b1 3b 7e 38 15 bb e2 be 04 bb
       -0.010811151 0.0054238094 -0.0022769268 -0.0020255377
000020 84 82 df 3b 94 35 8f 3b c9 fb 35 3b c3 e8 10 3b
       0.0068209786 0.0043704007 0.0027768484 0.0022111393
000030 0d d4 97 bb 2a c2 d5 bb 30 20 81 bb 70 88 97 3a
       -0.0046334327 -0.0065233903 -0.0039406046 0.0011561047
000040 41 11 10 bc 40 22 00 bc 70 e4 93 bc 58 71 64 ba
       -0.008793176 -0.007820666 -0.018053263 -0.00087143993
000050 49 c7 aa bb 26 c2 3a 3b 6c 80 46 3b 16 85 58 bc
       -0.005211745 0.002849707 0.0030288948 -0.013215324
000060 2a e6 44 bb 0b 6c 31 3a 7b b9 35 ba 2c 35 36 3b
       -0.0030044415 0.0006768114 -0.0006932241 0.002780269
000070 2d 22 a0 bb 6e f3 21 bc 8a ed d6 ba a1 7b 4f b9
       -0.0048868866 -0.009884698 -0.0016397696 -0.00019787114
000080 ac 25 3e bc af e4 19 bc 2d 08 79 3c b4 ee 32 3b
       -0.011605661 -0.009392901 0.015199703 0.0027302923
000090 00 4b f3 bb 6c 1c 0b 3c de 9f 45 bc a9 08 84 bc
       -0.007424712 0.008490663 -0.012062041 -0.01611741
0000a0 36 c1 7c 3b 7d fc 08 bc 7e 25 1d 3c a9 47 53 3c
       0.003856731 -0.008360979 0.009591458 0.012895503
0000b0 b1 a9 87 3b eb 90 e2 bb 62 f4 1f ba ae 47 25 bc
       0.004140102 -0.006914248 -0.00061017845 -0.010087891
0000c0 7e 56 51 bc 4b 67 1e 3b 48 44 9e ba f5 ec 54 bb
       -0.012776969 0.0024170454 -0.0012074793 -0.003248987
0000d0 8d ea 17 bb b9 4b 35 bc 0f d6 18 bc af 10 0c 3c
       -0.0023180575 -0.011065417 -0.009328379 0.0085489
0000e0 ac a3 08 3c 32 a5 84 bb c2 ae e0 bb ec f4 a4 3c
       0.008339804 -0.004048013 -0.0068567703 0.02013632
0000f0 55 66 d2 3c 22 8d 7a bc 22 df 01 3c 5c dd 3c b9
       0.025683561 -0.015292438 0.007926734 -0.0001801154
000100 0c b7 a4 3c b6 07 a8 37 44 da 0d 3c af a7 ee 3a
       0.020106815 2.0030751e-05 0.008657996 0.0018207933
000110 4b a2 1a bc a1 d2 23 bc c6 55 71 3c 28 ec 8d 3c
       -0.009438108 -0.009998948 0.014729923 0.017324522
000120 c1 63 0e 3c 0a 85 c7 3a 30 c1 14 3c 82 f1 5a bc
       0.008690775 0.0015222144 0.009079263 -0.013363244
000130 4c 90 86 bc 6c 6c 34 bc 2a fd 69 bc 63 55 96 3c
       -0.016426228 -0.011012178 -0.01428155 0.018351262
000140 d9 ad 3d bb 01 89 fe bb 41 31 d7 bb fd 32 25 bc
       -0.0028942733 -0.007767797 -0.006567151 -0.010082957
000150 56 9e 26 ba d6 23 a1 bb 8d 75 9d bb 0b bd 6b bc
       -0.00063559914 -0.004917602 -0.004805273 -0.014388333
000160 ca 4d 9c 3b be 4a 1f 3c 98 c0 27 bc c9 30 cf 3b
       0.0047700154 0.00972241 -0.010238789 0.0063229543
000170 62 0d 9c 3a ca fd 4b 3c 9a 31 28 bc fb 21 dc bb
       0.0011905844 0.012450645 -0.010265732 -0.006717918
000180 7e f6 9c 3c 4b c2 81 bb 78 b3 67 3c 37 90 e5 bb
       0.019160505 -0.003959929 0.01414191 -0.007005717
000190 0a 14 5a bb cb 08 8d bc 71 a9 29 3c f9 c5 f4 3b
       -0.0033276104 -0.017216107 0.010355339 0.0074698892
0001a0 f6 cb 9c bc a1 a7 55 3a 2e b8 92 3b 52 d7 de bb
       -0.019140225 0.0008150284 0.0044775223 -0.0068005705
0001b0 c6 12 51 3c 3f a3 ae bb 66 00 ff 39 8a 8d 24 3c
       0.012760824 -0.005329519 0.00048637687 0.010043511
0001c0 5f f6 10 3b cb cf 76 ba 9c fe 7d b9 10 36 b2 bc
       0.0022119505 -0.0009415119 -0.0002422281 -0.021754295
0001d0 27 3f 13 3b 81 2a ee bb a3 d9 9d bb 93 01 58 3b
       0.0022468062 -0.0072682505 -0.004817204 0.0032959923
0001e0 d3 a8 e4 bb d4 84 8f 3c 07 84 3c bc f0 25 31 bb
       -0.006978133 0.017519392 -0.011506087 -0.002703067
0001f0 cd 8f 3d 3a e9 89 ae 3c d4 4e 6c 3c f0 b0 10 38
       0.0007231206 0.021305995 0.014423091 3.449706e-05
000200 31 c2 35 3b 5e 56 71 bc 81 15 ae bc 17 0b 15 3c
       0.0027734155 -0.014730064 -0.021250488 0.009096882
000210 9c 95 d7 3b 0b 15 7e bb e0 af 02 bc 7e d2 1a 3c
       0.006579114 -0.0038769867 -0.007976502 0.009449599
000220 cd b4 7d 3b d5 78 9f bc d5 b4 3f 3c 9d de 85 3c
       0.0038712502 -0.019466797 0.011700829 0.016341502
000230 c2 7b 60 3c ca 4f 38 3c 93 ba 89 3b cc 08 e5 37
       0.013701381 0.011249492 0.0042031496 2.7303024e-05
000240 a0 e8 c7 bb b6 a1 de bb 22 dd 8c 3c 1f 00 38 bc
       -0.006100729 -0.00679418 0.017195288 -0.011230498
000250 90 b8 c4 bb 6c 6c 7f bc 56 6b 50 ba de 20 11 bc
       -0.006003447 -0.015589815 -0.00079505646 -0.008857934
000260 10 e7 7f 3b a3 8e 0a bb 3f 16 8d 3c 8b 07 82 3a
       0.0039047636 -0.0021142147 0.017222522 0.0009920461
000270 85 00 18 ba 02 4e 99 bc 2e b3 e2 3b 7f 74 b6 bb
       -0.0005798417 -0.018713955 0.0069183325 -0.0055680866
000280 96 65 9b bb 8f af fe bb 3a b6 da ba 08 56 e4 3a
       -0.0047423346 -0.007772393 -0.0016686388 0.0017420659
000290 4c 46 60 bc 88 c9 92 3b 5b 17 be 3b 8d 58 f6 bb
       -0.013688635 0.004479591 0.005801124 -0.0075178803
0002a0 ec 86 71 bc bf 36 aa 3b fc 3d 5f bb cf 52 00 bc
       -0.014741641 0.0051945145 -0.0034064045 -0.007832243
0002b0 01 0f 19 3c e7 c1 b9 bb 67 6f 1d 3c 53 e2 12 3c
       0.009341956 -0.005668867 0.00960908 0.008965093
0002c0 fc bd 9a bb f1 68 78 bc fc 55 8f bc 0e 2a 81 3b
       -0.004722355 -0.015161739 -0.017497055 0.003941781
0002d0 e5 cb cf 3a 6b f0 29 3a 8a ac 53 3c 10 18 7b 3c
       0.0015853612 0.00064826634 0.0129195545 0.015325561
0002e0 10 c5 51 3b ea fc 2b 3c d8 4f 74 3c 6f c6 92 bb
       0.0032008328 0.010497311 0.014911614 -0.0044792215
0002f0 e0 9a 6f bc f5 dd 67 bc ac 6a c3 ba 42 7a 80 3b
       -0.014624327 -0.01415204 -0.001490911 0.0039208243
000300 95 c6 0e 3c 06 ce 45 3b 54 69 ef 3b 78 dd 07 ba
       0.008714338 0.0030182614 0.0073062573 -0.0005182843
000310 3d 9b 60 bc 16 f4 6d 3c 1d f5 89 bb fe 04 a9 bb
       -0.013708887 0.014523527 -0.004210128 -0.005158066
000320 12 4b 60 bc 6b 76 84 bc 02 33 1e 3c 00 e5 07 3c
       -0.013689773 -0.016169747 0.009655716 0.008294344
000330 7d be fa 3b 50 71 b2 bb 93 4a 59 bb 12 12 7e 3c
       0.0076521025 -0.005445637 -0.0033156022 0.015507238
000340 c7 b8 f0 bb 75 9e df bb 56 fa 28 3c ac eb 38 bc
       -0.007346246 -0.0068243095 0.010313591 -0.011286657
000350 89 b4 bc 3c 3d 97 f0 3c 2b 74 ce 3b e6 fc 18 3b
       0.023035305 0.029368991 0.0063004694 0.0023344099
000360 fc 5e a3 3b 65 4b 33 3c fe f3 ba 3c 2b 26 8d bc
       0.0049856883 0.010943268 0.022821423 -0.017230114
000370 a5 f1 23 3c 71 5b 08 3a ff 4f 4f 3b da 85 ad 3c
       0.010006343 0.0005201614 0.0031633375 0.02118199
000380 49 a2 b7 ba 0c 21 16 bb 3d 21 17 3c a7 5f 09 bc
       -0.0014010157 -0.002290788 0.009224233 -0.008384622
000390 79 d8 92 bb ad 55 90 3c f8 2e cd 3b 1e 2d a2 ba
       -0.004481372 0.017618978 0.0062617026 -0.0012373065
0003a0 2c a8 3b bb ab e8 9a bc 0c 04 e2 ba 42 8e 17 3c
       -0.0028634174 -0.018909773 -0.0017243638 0.0092502255
0003b0 e7 1f a9 b9 1d 6a ff bb 39 cb 1b 3c 06 02 bc 3b
       -0.0003225796 -0.007794632 0.009508901 0.005737546
0003c0 7e f7 33 bb 2a 02 f2 bb 72 1b d9 3b bb 6d 73 bb
       -0.002746075 -0.007385512 0.006625586 -0.0037144262
0003d0 d6 c1 e9 3b d6 35 95 3a 64 d3 85 bc d8 fb 12 bc
       0.0071337027 0.0011383842 -0.01633615 -0.008971177
0003e0 94 cd db 3b 17 eb 7a bc 4e 76 11 bb 93 5c 99 3c
       0.0067078564 -0.015314839 -0.002219576 0.0187209
0003f0 7b 77 f0 bb 99 e9 6b 3b 0b 13 d5 bb ae a3 24 3c
       -0.007338462 0.003599739 -0.0065025142 0.01004879

action_model._discrete_distribution.branches.1.bias f4 [2]
000000 a1 21 78 3c 9b 21 78 bc
       0.0151447365 -0.015144731
