results/force/My Behavior/My Behavior-500002.pt (torch, 506173 bytes, 55 tensors)

discrete_act_size_vector f4 [1, 3]
000000 00 00 00 40 00 00 00 40 00 00 00 40
       2.0 2.0 2.0

network_body._body_endoder.seq_layers.0.weight f4 [128, 19]
000000 d7 23 64 bd 06 b2 37 3f 5f 0c 5d 3e 64 d0 8c 3d
       -0.055698242 0.7175602 0.2158675 0.06875685
000010 26 7a 57 3e 94 60 c2 3d 3c bc fa bd 25 77 b3 3e
       0.2104269 0.09491077 -0.12242934 0.35051838
000020 03 78 1b 3e c7 da 09 bd 86 ab c6 3e d4 4f 0a 3e
       0.151825 -0.033655908 0.38802737 0.13507015
000030 c4 84 e3 3d 85 7f 06 bc 46 5e a7 bd 21 e3 87 be
       0.111093074 -0.008209114 -0.08172278 -0.26540473
000040 ee e4 5b 3e e8 48 b6 be 6d 7f 9d 3c b7 1f bf 3e
       0.21474048 -0.35602498 0.0192258 0.37328884
000050 09 5d 98 be a1 2b 8f bd 2f 6f 31 3e 18 ff ea bd
       -0.2975848 -0.069907434 0.1732757 -0.114744365
000060 91 5e c5 bc ef ea 3a be c0 1e 5f bd 8e dd 74 3e
       -0.024092944 -0.18253683 -0.054472685 0.23912641
000070 ae ff 69 bd e3 4f ee bd 26 e6 86 be f3 9e 26 3e
       -0.0571286 -0.11636331 -0.26347464 0.16271572
000080 5a b9 af bd 44 60 2a bd 88 45 1b be 2c 0f c5 3d
       -0.08580275 -0.041595712 -0.15163243 0.096220344
000090 77 8a ce bd 68 73 39 be d7 79 db 3e 7d 57 ff bd
       -0.10085004 -0.1811043 0.42866394 -0.12467859
0000a0 ad ef 2f be 5c 3c 8a 3c cb b2 fa 3e 43 43 0e be
       -0.17181273 0.016874485 0.48964533 -0.13892846
0000b0 df 70 93 be 85 c0 f8 3d 4e bb 9f bc 95 4f 33 bd
       -0.2879705 0.12146095 -0.019498494 -0.043777067
0000c0 18 2f 2b 3e 5f 92 12 3e 54 ed 75 3e fe 2a 21 3f
       0.16717184 0.14313649 0.24016315 0.62956226
0000d0 03 b9 03 be 31 dd 5b bd ad a2 3e 3e 20 5c 6e be
       -0.12863545 -0.05367774 0.18616743 -0.2327733
0000e0 2f 9c 69 be 70 5c aa be 6c ab cf bd 0c 3a 8e be
       -0.22813486 -0.3327365 -0.10140118 -0.2777866
0000f0 36 27 0e be 24 c6 de bd e3 94 94 be be 56 7b be
       -0.13882145 -0.10877636 -0.29019842 -0.24544808
000100 ff c5 b0 3d c3 22 c8 3e 4f 36 8d 3e 4b c0 19 bd
       0.08631515 0.3908902 0.27580497 -0.0375369
000110 7f bf 17 be ae 20 22 3f 7c 12 3f be 35 9a 71 bd
       -0.14819144 0.63331115 -0.18659395 -0.058984954
000120 b0 e2 c9 3d 59 03 50 3e cf 34 06 3d d6 4b bc 3e
       0.0985769 0.20313777 0.032765206 0.36776608
000130 85 32 8d 3e f7 aa ed 3d f0 79 af be 26 6b 16 3e
       0.27577606 0.116048746 -0.34272718 0.14689311
000140 1c ce 65 be d6 ae 48 3e 64 ab d9 3d 9e f7 c5 bd
       -0.22441906 0.19597945 0.10628393 -0.0966637
000150 d4 73 32 be 7e e4 a0 3e 53 c1 43 3e c7 d2 41 be
       -0.17426997 0.31424326 0.19116716 -0.18928061
000160 8e c8 46 be 6c 80 1f 3e cc 8c ea 3e ba c8 8d 3d
       -0.19412443 0.15576333 0.45810544 0.06923051
000170 d2 97 75 be 7e 61 fe 3d 50 99 5f 3e a3 ed e8 3e
       -0.23983696 0.12420939 0.21835828 0.45493802
000180 96 f7 19 be ac 10 9d bc 62 fd e8 3e 6e b6 24 be
       -0.15035853 -0.019172989 0.45505816 -0.16085216
000190 0d a0 b9 3e 4a 94 6c 3d 9e 26 10 3d 8d c8 38 be
       0.36254922 0.057758607 0.03519308 -0.18045254
0001a0 7a d0 0c 3e 0f 63 8a be a0 fa 4e be 8e a9 01 bf
       0.13751402 -0.270287 -0.20212793 -0.50649345
0001b0 78 f9 94 3e d9 a3 fe be 63 33 83 3e 81 ad 9e 3d
       0.2909658 -0.4973438 0.25625142 0.07747937
0001c0 d0 43 05 3e 4f d4 37 3e a4 85 5f be 7b 25 9c be
       0.1301415 0.17952083 -0.21828324 -0.30497345
0001d0 36 2a 34 be f0 5c 4e bd 02 e6 1a be e0 7e a4 bd
       -0.17594227 -0.0503816 -0.15126804 -0.08032012
0001e0 62 f2 b2 3d f4 22 25 be be 67 bc 3d 3d a4 02 bf
       0.08737637 -0.16126615 0.09199475 -0.5103186
0001f0 ef 62 72 3e a2 c3 fb 3e 57 ea 90 be cc 88 ae 3e
       0.23670553 0.49172693 -0.28303787 0.34088743
000200 b8 4d 82 3d d9 1a fb 3e 8a 0c b5 3e b8 35 fa bd
       0.0636248 0.4904392 0.3536113 -0.12217277
000210 4f 7b 83 bd 63 d5 18 3d 80 88 0f be 79 e6 d8 3d
       -0.064200036 0.037312876 -0.14016914 0.10590834
000220 73 83 be bd 79 a6 9c 3e e8 1d 91 3d f8 a7 c8 bd
       -0.09302416 0.3059576 0.07085782 -0.097976625
000230 d3 69 b0 be 72 a4 5f 3e 46 53 43 3e 39 f8 43 3e
       -0.34455737 0.21840075 0.19074735 0.19137658
000240 79 53 01 3d 5b 45 71 be 33 3f 4f be c6 36 f3 3e
       0.031573746 -0.23561613 -0.20238952 0.47502726
000250 72 ed 90 be 1f 0a bf bd 63 ee 91 3c 99 96 4a 3e
       -0.28306156 -0.09328102 0.017813867 0.19784011
000260 87 da f6 3e d1 54 ab 3e b6 af 0d 3d 2e 90 89 3c
       0.48213598 0.33463147 0.0345914 0.016792383
000270 a6 91 02 be 25 a7 fb 3d 49 2a 71 be e0 00 74 bc
       -0.12750873 0.1228774 -0.23551287 -0.014892787
000280 06 ee 0a be 98 00 60 bc 0b d3 c9 bd 07 22 84 3c
       -0.13567361 -0.013672017 -0.098547064 0.016129507
000290 dc 15 af 3d 63 17 11 3d fa ab 0f be 00 9b 43 bd
       0.08549091 0.035422694 -0.14030448 -0.04775524
0002a0 9b 7a 89 bd 0c 3e 03 be f8 8b 8d 3d 7e 1d c0 3c
       -0.06712838 -0.12816638 0.069114625 0.023451563
0002b0 9d 0d ab bd 4f cc 5e be bc fa 0c bf ee a6 45 3d
       -0.08352206 -0.21757625 -0.5507009 0.0482549
0002c0 68 0e 96 be 91 58 82 bc 8e dd 7a bd 4d f0 11 bd
       -0.29307866 -0.015911372 -0.061246447 -0.03562956
0002d0 7e b4 b6 be bb 7d 4a bc 9d e2 b6 3e e7 27 96 be
       -0.3568458 -0.012359078 0.35719767 -0.29327318
0002e0 94 07 4e 3e 90 06 f2 bd b6 09 5b 3d a8 dc ba bd
       0.20120078 -0.11817658 0.053476058 -0.09124118
0002f0 45 42 20 bf e9 0f 5d 3e f4 39 1a 3d 49 52 52 bd
       -0.6260112 0.215881 0.037652925 -0.051348004
000300 b6 a9 39 3d 1d 9e 70 3e 11 43 f9 bd 03 a7 45 be
       0.045327865 0.23497815 -0.12170995 -0.19301991
000310 68 0d 8d be 77 ec a2 3d 6a 0b e1 3c fe 0a f8 be
       -0.2754929 0.07955258 0.027471263 -0.48445886
000320 b9 8c 22 be 85 02 07 be 02 ac 66 3e 37 fa 78 3d
       -0.15873994 -0.13184555 0.22526553 0.0607855
000330 62 37 59 bd 9e 21 a1 3d 26 9b 96 3c 0b 5c 0d 3e
       -0.053031333 0.0786774 0.018384527 0.13804643
000340 db 53 21 3d 7b 2f ae be 43 b3 b8 3e b3 3f ab bc
       0.03938661 -0.340206 0.36074266 -0.020904398
000350 53 4b 0d be 51 41 2f 3e 36 f7 df 3d 6f c8 a3 be
       -0.13798265 0.1711476 0.109358236 -0.31988856
000360 0a b4 dc bd b7 6d 7e bb 96 bc 80 3d 8d 81 88 3e
       -0.10776527 -0.003882272 0.0628597 0.2666134
000370 3f ed 10 3e 9f 49 2f 3d 49 d2 6b 3e 7e 42 7f bd
       0.14153002 0.04279482 0.23029436 -0.06231927
000380 4e e8 02 3f 9e 57 5a 3e 98 37 6a 3e a0 64 db 3c
       0.5113572 0.21322486 0.2287277 0.02678138
000390 84 19 0b be 0e 41 c7 be 34 8b ad 3e a0 83 c6 be
       -0.13583952 -0.3891682 0.33895266 -0.38772297
0003a0 2a 02 c9 3d 32 42 42 be 3c b8 93 bd a1 c2 44 be
       0.09814866 -0.18970564 -0.07212874 -0.1921487
0003b0 a7 cc 06 be 7e 37 8b be a8 fc 55 be 28 e2 da be
       -0.13164006 -0.27190775 -0.20897162 -0.4275067
0003c0 f9 b0 90 be 8e 36 76 3c 11 a8 92 3e c6 70 b3 be
       -0.2826002 0.015027655 0.2864385 -0.35046977
0003d0 0a 03 b2 be 77 0e 33 3e 44 34 8b be b0 1f 3e be
       -0.34767944 0.17485987 -0.27188313 -0.18566775
0003e0 3b 8d 5f be 25 4e 8d 3d a7 c3 3b be 6f 1a bb be
       -0.21831219 0.068996705 -0.18336354 -0.36543605
0003f0 ab b8 ed 3e 43 92 1b bd 4e 30 04 3d 65 06 98 3c
       0.46429953 -0.037981283 0.03227263 0.018557737

network_body._body_endoder.seq_layers.0.bias f4 [128]
000000 e6 6c f3 37 85 e9 af 39 4b 0b c8 3a 09 58 1a bb
       2.9018567e-05 0.00033552587 0.0015262155 -0.0023551008
000010 90 91 27 3a ed fc 06 b9 14 d0 99 ba 3e 1e 1d 37
       0.0006392235 -0.00012873458 -0.0011734986 9.3649705e-06
000020 fc f4 fc 39 36 61 8b 39 79 d4 1d ba 61 4b 11 bb
       0.00048247713 0.00026584574 -0.00060207356 -0.0022170173
000030 09 fd 3e bb 9e c3 72 bb c8 d3 7e ba b8 54 cc b8
       -0.002914252 -0.0037042866 -0.0009720889 -9.743258e-05
000040 fd 51 1f 3b 09 d6 09 bb 06 69 a8 ba 73 0a 71 3a
       0.0024310343 -0.0021032116 -0.0012848682 0.00091949775
000050 e7 82 d3 bb dc 7d 8c 3b 69 a8 56 ba 0d b8 b4 b9
       -0.0064548138 0.0042874645 -0.0008188547 -0.00034469404
000060 a5 4a ff bb 00 d6 35 3a 92 76 fb 3a 9d 73 a5 ba
       -0.0077908807 0.00069364905 0.0019185117 -0.0012622956
000070 1b b3 21 bb 5d ef 2b bb 93 f3 b0 bb da 51 8c bb
       -0.0024673406 -0.00262352 -0.00540013 -0.0042822184
000080 a6 5e cb 3a af d3 81 3b c4 8a 04 39 dc 8d 81 3a
       0.0015515878 0.003962002 0.00012640195 0.0009884196
000090 81 a2 35 bb 84 5d 7d 3a 15 b9 bc 3a ba ad 58 3a
       -0.0027715268 0.0009665119 0.001439842 0.00082656334
0000a0 e7 6e b2 bb ea b2 3b bb b9 cc 13 bb fe c0 dc ba
       -0.0054453495 -0.0028640577 -0.0022552444 -0.0016842184
0000b0 2c 6a 0d bb 1a ed 48 3b 0e 71 fa 3a 38 86 25 3b
       -0.0021578176 0.0030658902 0.0019107179 0.0025257003
0000c0 ea f8 c6 3a 41 ec a0 b9 6f 68 3b 3b 12 a7 05 ba
       0.0015180383 -0.000306936 0.0028596183 -0.0005098443
0000d0 3a ad 02 bb 43 fb 05 ba 91 aa 40 3a 0a ab ef 3a
       -0.0019939677 -0.0005110988 0.0007349635 0.0018285227
0000e0 7a e2 4f ba 26 bb d9 39 fe 7b 26 3b 1b 21 28 ba
       -0.0007930171 0.00041528902 0.0025403495 -0.00064136245
0000f0 3a e9 68 bb d7 2b 1f 3b a7 31 f2 b9 52 f3 fb 3a
       -0.0035539404 0.0024287605 -0.0004619483 0.0019222295
000100 49 f9 05 3b 8d af 00 bb ec 01 ab ba 21 24 8a ba
       0.0020442775 -0.0019635886 -0.0013046837 -0.0010539332
000110 97 19 43 b9 e3 c4 ae bb 0c 76 1d 3b bb e3 8f ba
       -0.00018606182 -0.0053335293 0.002402666 -0.0010977903
000120 6a 04 80 ba 17 67 18 3b a3 2f e4 3a 97 f5 be ba
       -0.000976694 0.0023254806 0.0017409216 -0.0014569041
000130 86 a6 c8 bb 1c 6d fb bb e5 bd 23 bb c8 4c 19 ba
       -0.0061233668 -0.007672919 -0.0024985012 -0.0005847928
000140 92 19 19 3b 26 e4 c6 b8 72 70 fd ba 22 9b b1 3a
       0.0023361188 -9.483872e-05 -0.001933588 0.0013550262
000150 b3 d6 2e 3b 6b 57 8b bb c6 6b 0e bb 5d 6e 26 3b
       0.0026678264 -0.0042523644 -0.0021731718 0.0025395371
000160 df b0 80 3a df 3b 62 bb 6e e5 b9 ba bb e1 30 bb
       0.0009818337 -0.003452055 -0.0014182755 -0.0026990015
000170 8a ce 7d bb 2e b2 f2 ba ae 49 9e 3a 79 4f c3 b4
       -0.0038727843 -0.0018516236 0.0012076402 -3.6379404e-07
000180 db 85 4b 3a 3f a5 14 bb a5 65 0d 3b 0d 5a 8e bb
       0.00077637815 -0.0022681502 0.0021575477 -0.004344231
000190 2d 92 09 bb 32 45 c3 3a 9a e5 85 3a b0 bc 4b 3a
       -0.0020991669 0.0014897941 0.0010215521 0.0007771952
0001a0 d5 db 67 ba bb d9 54 3b b0 74 0c ba 3f 90 34 3b
       -0.0008844708 0.003247841 -0.0005357964 0.0027551798
0001b0 52 f5 80 ba 98 ca 74 ba 7b ff c0 ba 4f 94 34 bb
       -0.0009838736 -0.000933805 -0.0014724577 -0.002755422
0001c0 f3 70 09 3a 0e d3 92 3b ae 32 ea ba 0f 8b 3b 3a
       0.0005242966 0.004480726 -0.0017867887 0.0007154205
0001d0 1d 72 37 b6 1a a8 f3 3a 87 72 3b bb 79 84 04 3a
       -2.7335548e-06 0.0018589527 -0.00286022 0.00050551404
0001e0 07 1b 41 b9 cd 6a 47 3b 33 b4 b3 3b 01 ea 66 3b
       -0.00018415983 0.0030428648 0.005484128 0.0035234692
0001f0 bb 97 07 38 a1 a5 06 3b 17 b4 e4 ba e3 2e 56 3b
       3.232782e-05 0.00205455 -0.001744869 0.0032681755

network_body._body_endoder.seq_layers.2.weight f4 [128, 128]
000000 1b 8c 4a be 50 41 be bd d2 43 0c bc 38 71 42 bd
       -0.19780008 -0.09289801 -0.0085610915 -0.047471255
000010 35 d3 c5 bc 43 4c 28 3e a5 47 ae bc 8a 44 a2 bd
       -0.024148563 0.16435342 -0.021274397 -0.07923229
000020 bb e8 f0 3c b9 c0 d0 3d d8 e9 dc 3d d7 6c ba bd
       0.02940785 0.10193009 0.1078679 -0.09102791
000030 af 29 7e bd 43 b5 04 bb 1b 86 a1 bc 2b 4a be 3d
       -0.06205147 -0.0020249642 -0.019717267 0.0929149
000040 d5 e9 3e 3e ab 6e f5 bd bb c0 74 3e 6e d6 16 3d
       0.18643887 -0.11983999 0.23901646 0.03682559
000050 66 e6 fc 3d 7e ec ab 3d a4 b1 f2 bb e9 9e b4 3d
       0.123486325 0.08394717 -0.0074064303 0.08819372
000060 69 dd 01 3e e4 9b 01 3d 69 7c b5 bd 8b 04 a6 3d
       0.12682118 0.03164281 -0.0886162 0.08106335
000070 6d 59 2f bd 1f 32 74 bd 7b f4 e2 bd 23 1f ff bd
       -0.042809892 -0.05961811 -0.11081787 -0.12457111
000080 56 5e 39 3c c5 7d 12 3b 7b f9 df 3c cd d3 4e 3d
       0.011313995 0.0022352797 0.027340641 0.050494958
000090 06 9f f7 3c f5 63 1c 3b ac 74 56 3d 94 28 dc 3b
       0.030227195 0.002386329 0.05235736 0.0067187045
0000a0 64 34 44 3d e1 83 08 3d c4 03 3b 3c ff 9a 52 3e
       0.047901526 0.033328895 0.011414472 0.20566939
0000b0 5f ab ed 3d 3b fb 16 3d 50 cc f2 3d 34 2e 6f 3d
       0.11604952 0.036860686 0.11855376 0.058393672
0000c0 62 a0 e4 3d 77 68 94 3c 33 c3 e4 3d a0 0a 0c 3e
       0.11163403 0.018116219 0.11170044 0.13675928
0000d0 c4 60 ea bc 65 62 6c 3d 19 91 9d bd 3b 1b 7a 3d
       -0.028610595 0.057711024 -0.07693691 0.061061125
0000e0 f4 13 e2 3d 4e 75 07 3e 97 da a3 3d db 53 03 3d
       0.11038962 0.13228342 0.08000677 0.032062393
0000f0 ff c4 95 bd 24 86 12 bd 4e c0 0c bd c8 c5 04 bd
       -0.07312965 -0.035772458 -0.034363084 -0.03241518
000100 25 20 92 3d ca 83 b1 3d 50 88 0e be 19 98 ba 3d
       0.07135037 0.08667715 -0.13919187 0.091110416
000110 a5 45 b0 3b b9 1c 57 3d 1d 62 f6 bd ec 8c 82 3d
       0.005379396 0.052517626 -0.120304324 0.06374535
000120 ea 93 d0 3d 63 9d cf bd 1a 85 cc bd 59 e3 e9 3d
       0.10184462 -0.10137441 -0.099863246 0.11420316
000130 10 67 b1 3a 50 c8 54 bd 9b 92 ee 3c 67 24 10 bd
       0.0013534743 -0.051948845 0.029122641 -0.035190966
000140 4a 7f 8a bc 7d 71 b8 bd 3e 87 fb 3c 42 0c 9a 3c
       -0.0169064 -0.09006021 0.030704137 0.018804673
000150 95 9a 15 be a8 a9 2f 3e ef 75 e2 bc 2d 7b 0b 3d
       -0.1460975 0.17154562 -0.027644126 0.034053016
000160 4b c9 0c bc 09 d6 46 3d 6b 4e 14 bd f1 a9 8c bd
       -0.008592914 0.048543964 -0.036207598 -0.06868351
000170 40 f3 7a 3d ff 05 d0 bd 28 40 d2 bd ce 70 0f bb
       0.061267138 -0.10157394 -0.10266143 -0.0021887305
000180 3c 9b 55 bd 2b 2a 90 3d b0 76 19 be bb 96 3c 3e
       -0.052149996 0.07039293 -0.14986682 0.18416874
000190 09 6e 05 3e 7e 8b d2 bd f6 e1 34 bd a4 e1 ad 3d
       0.13030256 -0.10280512 -0.044160806 0.08490303
0001a0 40 92 0b 3e 1a c4 71 3d 91 4a 78 3c 08 07 a6 ba
       0.13630009 0.059024908 0.015154497 -0.001266689
0001b0 6d 3d 27 be b1 2d 58 3c 61 86 14 be 75 dd 0e 3c
       -0.16332026 0.013194487 -0.14504386 0.008719792
0001c0 c8 e4 ec bd 79 e7 7e 3d 69 53 89 bd c9 8e 04 3d
       -0.11567074 0.06223247 -0.06705362 0.032362733
0001d0 cd 09 b6 3d 97 5a 07 3a 9f 21 65 3d 32 a7 16 3d
       0.08888588 0.000516334 0.055940267 0.036780544
0001e0 08 be 69 3d 4c 7d 5a be ce 73 e4 bc 08 2e 2e 3d
       0.057065994 -0.2133686 -0.027887251 0.042524368
0001f0 6e 9e c2 3c 09 b0 15 3d 39 e8 cf bd 08 9f 04 3a
       0.023757186 0.036544833 -0.10151715 0.0005059098
000200 b0 c5 9d bd 6b c0 06 3d 53 7b a5 bc f1 b2 7e 3c
       -0.077037215 0.032898348 -0.020200407 0.015545593
000210 03 22 83 3c db e8 c6 bd 4c 4d 8f 3d 46 e5 a6 bd
       0.016007429 -0.097123824 0.06997165 -0.08149199
000220 fc 50 11 be 44 39 d1 bc f0 f4 b4 3c cc 63 89 3e
       -0.1419105 -0.025540002 0.022089452 0.2683395
000230 42 c2 e9 3d f1 7c 3c be 0c ac e1 3c 5d 19 b2 3d
       0.11414005 -0.18407036 0.027547859 0.08696244
000240 a7 33 3d be bc 70 b2 3d 64 33 36 bd 39 93 b4 3d
       -0.18476735 0.087129086 -0.044482604 0.08817143
000250 82 ba 9a 3d 20 25 ad 3d 21 3f 77 3d 0f 9c 0e bd
       0.07555105 0.08454347 0.06036294 -0.034816798
000260 f2 b4 d8 bc 3e 3c 07 be 41 5a ae bd a4 bc 19 be
       -0.026453469 -0.13206574 -0.08513308 -0.15013367
000270 c6 e6 ee bc 92 44 a1 3c 80 82 0b bc 49 14 14 be
       -0.029162776 0.019686017 -0.008515 -0.14460863
000280 22 d7 b3 3d e7 07 d2 bd 7c 53 a6 bd b1 d1 b3 bc
       0.08781268 -0.102554135 -0.08121392 -0.021950575
000290 0a 9d b1 3b 16 87 6e be 18 47 c2 3c f6 00 25 bd
       0.005420332 -0.23293719 0.02371554 -0.04028412
0002a0 30 8a 7e 3d 51 68 3f bd b5 ed 50 be bf ef 28 bc
       0.062143505 -0.046730343 -0.20403178 -0.010311066
0002b0 6c 36 af bd 32 1d ef bb f9 31 54 bd a8 86 2f 3d
       -0.08555302 -0.0072971815 -0.05180547 0.042853028
0002c0 c4 40 99 bd 0d d1 31 be 1b 71 19 bd ee 7a dd 3c
       -0.07483056 -0.17364903 -0.03746138 0.027036157
0002d0 78 2a 2f 3e b1 d9 b0 3d 19 8b d4 bb c7 ee d3 3d
       0.17106044 0.08635271 -0.0064863083 0.103482775
0002e0 99 19 98 3c a0 8d bf bd bf 91 a1 bc d9 e8 a0 3d
       0.018566893 -0.09353185 -0.019722817 0.07856912
0002f0 78 a2 a6 bd f9 62 82 3d 7e e1 bc 3d 16 df ed bd
       -0.08136457 0.06366534 0.09222697 -0.11614816
000300 36 37 a1 3c e8 91 2c 3c 95 45 cd 3d a9 86 9d 3d
       0.019679647 0.010532834 0.10023037 0.076917
000310 53 14 a5 3d 05 7d 04 be 81 56 f7 3d e1 ba 0c 3c
       0.08060517 -0.12938316 0.12077046 0.008589477
000320 d7 6b ff 3c 39 fd 93 b9 e4 8e 64 3d a8 75 49 be
       0.031179352 -0.0002822669 0.055800334 -0.19673789
000330 01 90 cb bd df 9f d9 bc f1 09 0c 3e ee 41 d8 3b
       -0.09939576 -0.02656549 0.13675667 0.0065996563
000340 84 01 08 3e b6 6d 25 bd dd e7 e1 3d c8 f2 8a 3c
       0.13281828 -0.04038783 0.110305525 0.01696147
000350 a1 7c 0b bd 5a e4 da bd 1e 9c 22 3d b8 5a 37 bd
       -0.034054402 -0.10688086 0.039699666 -0.04476425
000360 9b 2f 35 be a8 63 4c 3d 75 9c 5e bd c5 6f d6 bd
       -0.17693941 0.049899727 -0.054348428 -0.10470537
000370 2a 7f 07 bd 9e a7 69 3a 3c 25 a1 3d f1 7b 83 bd
       -0.033080257 0.00089132215 0.0786843 -0.06420124
000380 cb c5 33 be c0 26 2d 3d dd 34 2b bd b9 2b 86 bd
       -0.17555921 0.042273283 -0.04179846 -0.06551308
000390 2d cd d2 bd 51 95 a6 bd 77 7b 9e bd ea 64 a0 3d
       -0.102930404 -0.081339486 -0.07738393 0.07831748
0003a0 0c 7a 32 3d 0c 73 10 bd 0a 67 2a 3d e2 8b 9d 3c
       0.043573424 -0.035265967 0.041602172 0.01923174
0003b0 00 a1 1c be 96 99 61 3c 12 08 ff bd 34 68 a3 3e
       -0.15295792 0.013769528 -0.12452711 0.31915438
0003c0 09 9b 2e bc 66 1b 94 bd 87 c1 8c 3d 8f 57 ed 3d
       -0.01065708 -0.07231788 0.0687285 0.11588966
0003d0 e4 f4 69 be 8d 12 9a 3c 8c bd 87 3d 86 aa da 3c
       -0.22847325 0.018807674 0.0662795 0.02669264
0003e0 aa c4 e6 bc 0c ad 04 bc 99 a3 94 bb 07 f3 0e 3b
       -0.028169949 -0.008097898 -0.004536104 0.0021812336
0003f0 38 de 6f 3c f9 20 04 bd bf c7 b8 bd e1 7a aa 3e
       0.014640383 -0.032258008 -0.090224735 0.33296874

network_body._body_endoder.seq_layers.2.bias f4 [128]
000000 74 cd 58 ba 47 1d 10 bb b6 ec ef b9 97 a6 86 bb
       -0.0008270361 -0.0021990107 -0.00045761996 -0.0041092145
000010 a2 7c 80 bb 3c c9 b3 39 3b a0 65 3a c2 c7 a3 3a
       -0.0039211074 0.00034291472 0.0008759533 0.0012495446
000020 85 68 20 3b b3 60 00 39 55 af f2 3a 65 57 70 3b
       0.002447636 0.00012243055 0.0018515388 0.0036673185
000030 b2 e4 c6 ba 7d 82 59 b6 04 b7 47 3a 7d 86 ad 3b
       -0.0015174358 -3.2411474e-06 0.0007618519 0.0052955733
000040 a4 d3 6c 3a 3e 96 54 ba 9e b1 54 bb b3 02 76 3a
       0.00090342225 -0.0008109546 -0.00324545 0.00093845575
000050 8b 15 43 3b 79 3a fb 39 c3 b6 62 bb 1e e6 15 3b
       0.002976748 0.00047918016 -0.0034593798 0.0022872756
000060 a3 20 80 ba 9b 9f 3f ba 62 39 50 bb da 95 e1 3a
       -0.0009775352 -0.0007309855 -0.0031772484 0.0017210797
000070 d1 9e 03 3b f6 16 f5 3a fe b7 4a bb e9 a1 6e 3b
       0.0020083676 0.001869886 -0.0030932422 0.0036412424
000080 45 b3 8c 3b 46 23 04 bc b6 df 41 bb cd b5 3e 3b
       0.0042938315 -0.0080650505 -0.0029582805 0.002910006
000090 e0 2b 2d 3a 20 b8 f9 ba 06 bd 9f 39 ba b8 97 3a
       0.0006605964 -0.0019052066 0.00030467677 0.0011575439
0000a0 03 97 d6 38 f4 44 b6 ba 8a 7d 34 bb fc 4f 4f 3b
       0.00010232443 -0.0013906048 -0.0027540647 0.0031633368
0000b0 5e 2d 1d b8 34 a9 e7 b9 1a ed b0 bb 57 30 a4 3b
       -3.747397e-05 -0.0004418582 -0.0053993585 0.0050106454
0000c0 7f 89 30 3b 6d 26 49 bb 10 29 52 3b 5e 24 7d bb
       0.0026937423 -0.003069307 0.0032067932 -0.0038626413
0000d0 a4 7d 44 bb 0f b2 de 3a 4a 56 02 3b 94 12 84 3b
       -0.0029982114 0.0016990321 0.0019887858 0.004030535
0000e0 b6 ee 28 3b 21 81 4e 3b 48 c3 95 ba 61 e8 f5 3a
       0.0025777048 0.0031510072 -0.0011425996 0.0018761271
0000f0 4e be 2e bb a8 e3 96 38 33 59 91 ba 1b 75 43 3b
       -0.0026663723 7.194962e-05 -0.0011089206 0.002982444
000100 fd f2 b4 39 be 90 17 3c 54 cd 4d bb c2 27 32 3b
       0.00034513316 0.009250818 -0.0031402903 0.0027184342
000110 2d 84 83 bb 90 db b5 3a 5d 5e 25 ba ca 07 0f 3b
       -0.0040135593 0.0013874639 -0.0006308312 0.002182471
000120 cd 26 32 3b 8f aa f7 3a 24 c4 30 3b 14 8c b3 ba
       0.0027183772 0.0018895435 0.0026972378 -0.0013698363
000130 7d 58 68 3a a1 5d 0e bb 1d e7 86 bb 3f 64 86 ba
       0.00088632834 -0.0021723288 -0.0041169063 -0.0010253264
000140 ea 0f a1 3a 90 6b 8a 3b cf 81 1a bb 5d 11 79 bb
       0.0012288068 0.004224248 -0.0023575907 -0.0038004734
000150 36 7b f8 ba 29 9f 47 bb e2 e7 88 3b 8b 5d 0b 3b
       -0.0018957618 -0.0030459857 0.004178033 0.0021265473
000160 a8 cb b1 3a b7 06 08 3b 71 1f 33 39 ba 69 1e bb
       0.0013564723 0.0020755955 0.00017082483 -0.0024171905
000170 75 ff 85 bb 2c 87 79 ba 81 00 41 3a 1a 18 55 3a
       -0.0040892907 -0.00095187384 0.0007362441 0.00081288966
000180 a1 0d e0 3a 94 38 31 3b 98 81 1d ba 6e 7e 6d bb
       0.0017093905 0.002704178 -0.00060083857 -0.0036238688
000190 c8 ef 01 bb 61 2a f9 b8 04 1e 50 3b 95 ea 7f 39
       -0.0019826759 -0.00011881139 0.0031756172 0.00024406084
0001a0 7c 54 88 3b a3 a7 62 39 bf 95 64 3b 39 10 2a 3b
       0.004160462 0.00021615489 0.0034879295 0.002594961
0001b0 57 b1 a2 3a 50 77 2a bb 12 dc f9 bb 69 a7 91 bb
       0.001241247 -0.0026011057 -0.0076251114 -0.0044450057
0001c0 c8 39 3b bb 3f 7d f3 3a 62 c9 86 3b df 42 20 3b
       -0.0028568376 0.0018576755 0.004113362 0.002445392
0001d0 eb 94 24 ba 86 42 4a 39 74 39 a7 ba ac 9b a8 ba
       -0.0006278294 0.00019289003 -0.0012758211 -0.0012863777
0001e0 fd 0d 28 3b 4f c1 8f bb 29 cd 85 b9 08 10 1e b9
       0.0025643103 -0.004387058 -0.00025520593 -0.00015074026
0001f0 90 f6 7c 3b 8d d2 8b b8 28 ad c6 ba 36 49 90 ba
       0.003859911 -6.667255e-05 -0.0015157806 -0.0011008147

action_model._continuous_distribution.log_sigma f4 [1, 6]
000000 15 66 19 3d 0f fd 47 3c 51 f9 03 3d 5c 89 82 3c
       0.03745087 0.01220633 0.03222019 0.015934639
000010 ad 5c e7 3b 97 5f ca 3c
       0.0070606084 0.024703784

action_model._continuous_distribution.mu.weight f4 [6, 128]
000000 24 97 1c 3c 47 6e 0f 3b 4f 42 ec 3b 89 4b 0d 3c
       0.009557519 0.0021885799 0.007210053 0.008623966
000010 22 bf b1 bc cb ac d9 bc 8b 05 77 bc ad 2d 80 bc
       -0.021697585 -0.026571652 -0.015077005 -0.01564678
000020 8e 9a 83 bb 73 2b 3a bd 7f d4 85 bc 44 27 1f bd
       -0.004016227 -0.045451593 -0.016336678 -0.038855806
000030 17 c9 fd 3c 73 0e 9e bc 8e 41 a9 3a b0 0b c6 bc
       0.030979676 -0.019294 0.0012913214 -0.024175495
000040 04 d7 91 3c 7d ae 5b bb 60 ef 80 bb 41 10 db bc
       0.017802723 -0.0033520751 -0.0039347857 -0.026741149
000050 d9 93 f7 3b 79 86 ea bc cf 78 b6 3b 9a 44 9b 3b
       0.0075554666 -0.028628575 0.0055686007 0.0047384026
000060 97 51 a8 bc 90 4a ad ba bf b3 3e 3c f7 3d 99 bb
       -0.020546718 -0.0013221074 0.0116395345 -0.0046765762
000070 75 67 7c 3c ff 48 31 ba 3c 14 43 bd 8c 5c 58 3c
       0.015405525 -0.00067628914 -0.04762672 0.013205659
000080 da 2b d9 bc 9f c6 a0 bc d9 e2 46 3c 8c 8e 61 bc
       -0.026510168 -0.01962596 0.012139046 -0.013766896
000090 04 02 99 3c f0 4a 90 3b 81 33 9b 3c 89 3e a6 3c
       0.018677719 0.0044034645 0.018945457 0.020293491
0000a0 cd c7 ac bc d9 b0 e3 bb 5b a0 b7 bc ab 49 d6 bb
       -0.021091366 -0.006948572 -0.02241533 -0.0065395436
0000b0 c8 98 1a 3d 93 aa d1 bb 65 dc 86 3c ee f3 be 3c
       0.03774336 -0.006398508 0.016462514 0.023309674
0000c0 f5 3e 31 3c c1 ff e0 3b 9a 11 09 3c de 19 c9 3c
       0.010818233 0.0068664257 0.008366013 0.024548467
0000d0 bd e6 0c bd 3f 5b 14 3a 37 89 41 bc 12 0c 88 3c
       -0.034399737 0.00056593487 -0.0118125 0.016607318
0000e0 59 0d e1 3a 8c f4 92 3c c3 6d cc 3b 80 79 b1 3b
       0.0017170116 0.017938875 0.0062386706 0.0054160953
0000f0 ac 22 8e 3b 2b 3e 1b bc 47 30 ad 3c f6 fc 37 3c
       0.0043376293 -0.009475271 0.021141184 0.011229744
000100 ac 6d d7 bb 41 f5 1b 3d a4 77 42 3c 63 df 1e 3d
       -0.006574353 0.03807569 0.011869345 0.038787257
000110 b7 d4 16 3b 8c 4a 8c 3c dd 41 0f bd f1 02 a9 bc
       0.0023014972 0.01712539 -0.03497492 -0.020631285
000120 f2 80 9a 3b 98 77 c5 bc 67 f2 0b 3c 5e d1 97 3b
       0.0047150785 -0.024104878 0.00854168 0.004633113
000130 8b 7a 59 bc 0c 74 5e bc 75 4e bb 3c 69 5c 9f 3c
       -0.013273845 -0.013577472 0.02286456 0.019453244
000140 8d 09 a1 bc 1f 07 26 bc 32 7c dc bc 56 b5 4d 3c
       -0.019657874 -0.010133534 -0.02691469 0.012555441
000150 08 df fa 3a 30 68 8a bc 2e d7 c6 bc 01 c1 dd bb
       0.0019139955 -0.016895384 -0.024272528 -0.0067673926
000160 86 27 b9 bc db 63 c1 bc b9 c6 a9 bb d7 17 80 bc
       -0.022601854 -0.023607185 -0.0051811603 -0.015636368
000170 9c 1f ba 3c f4 0c 90 3c d8 47 f4 bc 55 90 59 ba
       0.02272015 0.017584302 -0.029819414 -0.00082994
000180 01 9f 52 bc ad 59 8c bc 07 6d e0 3c 66 49 61 3b
       -0.012855292 -0.017132604 0.027395738 0.0034376024
000190 13 f8 a8 3c 48 2a bd 3c 56 ac 8a 3c c7 0a b6 bc
       0.020626104 0.02309145 0.01692788 -0.022221936
0001a0 e0 f0 81 bc 48 50 6c 3a d7 73 db 3c 98 6b 29 bc
       -0.015861928 0.00090146484 0.026788635 -0.010340594
0001b0 91 14 55 bc d6 7d 80 bc f6 3c 9c ba 54 6e 95 ba
       -0.013005392 -0.015685003 -0.0011920023 -0.0011400678
0001c0 77 7f 6a 3c f1 91 1d 3c 59 8d 26 bc f6 0a 4e 3c
       0.014312617 0.009617315 -0.010165536 0.0125758555
0001d0 05 7d af 3c 5f b8 ce 3c 0e e9 8c bc 3e a4 23 bb
       0.021421919 0.0252344 -0.017200973 -0.0024969722
0001e0 a2 73 6b bb 37 4d d2 bc 68 d9 f9 bb a0 b8 3e 38
       -0.0035927077 -0.025671585 -0.007624794 4.5471475e-05
0001f0 d0 e9 39 b9 c8 10 34 3c c7 78 0a 3d 0c 4a a0 3c
       -0.00017730077 0.010990329 0.03380659 0.019566558
000200 d1 52 5e 3a 9f 51 b2 3c f0 46 f8 bb 73 84 8b 3a
       0.00084809685 0.021767436 -0.007576816 0.0010644331
000210 84 da b0 3c ab 0f a7 bc 4b 4a 10 3d 26 93 a7 3a
       0.021588571 -0.020393213 0.0352271 0.0012784943
000220 ef ba a1 bb 14 49 f5 3a bf d8 e8 3c 0e b0 ad 3a
       -0.0049356143 0.0018713796 0.028423665 0.0013251321
000230 2d 5b 8e 3b ab ae ed bb 5d 54 ef 3b b1 b8 42 3c
       0.004344365 -0.007253488 0.007303758 0.011884854
000240 a7 de b0 3c 36 86 d7 bb 66 10 0b 3a f5 59 53 bc
       0.021590544 -0.0065772785 0.0005304873 -0.012899865
000250 29 12 8d 3c 18 de 13 bd 94 2a 2f bc d3 19 17 3d
       0.017220573 -0.036100477 -0.010691304 0.036889862
000260 3d c6 55 3a dd 8f dc 38 6c 6a b0 39 3d 7e 2a bc
       0.0008154845 0.00010517214 0.00033648626 -0.010406074
000270 71 a3 0e bc ef eb 9f bc 68 9c 3c 3c 03 56 d9 3c
       -0.00870596 -0.019521682 0.0115118995 0.026530271
000280 9b 49 80 bc 94 44 21 3c 62 d4 0e 3d 61 e3 8f 3c
       -0.015660098 0.00984301 0.034870513 0.017564477
000290 ec f3 d6 3c a7 84 cb bc ef 90 fc 3c 3a e7 9c bc
       0.026239358 -0.024843527 0.030830828 -0.019153226
0002a0 4f 9a 3b 3d 1b f1 20 3b 80 36 82 bc b3 7a 2f 3d
       0.045801457 0.0024557773 -0.015895128 0.042841624
0002b0 e4 26 73 bc c0 16 59 3a 00 82 5a b9 52 ba 41 bb
       -0.014840815 0.0008281283 -0.00020838529 -0.0029560518
0002c0 e2 75 2c bc 68 6f f7 bc 98 e8 04 3c 50 13 9f 3c
       -0.010526152 -0.03020449 0.008112095 0.019418389
0002d0 69 24 03 bb 59 15 65 3c a3 83 06 bd aa 5e 3f 3c
       -0.0020010716 0.01398214 -0.032840382 0.0116802845
0002e0 e2 2c fe bc 2b 62 a5 bc 3f 8a 24 3c 3a 11 ba ba
       -0.031027261 -0.020188412 0.010042726 -0.0014195808
0002f0 c0 96 08 bc cf de eb 3b e0 ac 91 bb 50 c6 dc bb
       -0.008336723 0.0071981917 -0.004445657 -0.006737508
000300 90 6d 51 bc 55 1f c8 3c ff fd 1e bc 51 cd 06 3d
       -0.012782469 0.024429003 -0.009704112 0.03291065
000310 34 2e c7 ba 79 85 89 3c 82 b4 b2 bc 43 66 4e 3b
       -0.0015196265 0.016787278 -0.021814588 0.0031494058
000320 9b 29 a1 bc 8e 6d 50 3c ba f7 61 3a 8b 45 cb 3c
       -0.01967316 0.012721432 0.0008619983 0.024813434
000330 b3 80 96 ba 35 8c 29 bc 8b 1a 36 bc 5c c6 b2 3c
       -0.0011482447 -0.010348369 -0.011114727 0.0218231
000340 3c 0f 7a 3c a9 02 a9 3b 97 93 b9 bc c8 68 62 39
       0.015262421 0.005157788 -0.022653384 0.00021592074
000350 0c 57 95 3b a5 58 cc bb e0 2e ad 38 76 4f 23 bc
       0.004557496 -0.006236153 8.258014e-05 -0.009967675
000360 d4 19 db 3c 7e 9b 34 3c 42 99 cf 3b 1b 30 90 bb
       0.026745714 0.0110234 0.0063354084 -0.004400266
000370 ee fc e8 bb f5 3e 10 bb 3f 70 2a bd b6 ec ad 3c
       -0.0071102297 -0.0022010182 -0.041610952 0.021231037
000380 cb 24 07 3c cb 24 d7 3c d0 67 10 bd 2c 01 e6 3c
       0.008248518 0.026262661 -0.035255253 0.02807673
000390 40 f8 06 3c 33 65 d7 bb fe 19 69 3b eb 20 44 3b
       0.008237898 -0.006573343 0.003556847 0.0029926847
0003a0 37 18 3f 3b 1d 5b 35 3c 1b de 78 bb 43 8d 70 bc
       0.002915872 0.011069086 -0.0037974182 -0.014682117
0003b0 b5 b5 62 bc 79 51 a5 3c 5b 8b 31 bc 56 60 e4 3b
       -0.013837268 0.02018045 -0.010836448 0.006969492
0003c0 00 b0 ef 39 01 20 83 3b d1 6d 9c bc 2d fa 84 bb
       0.00045716763 0.004001618 -0.019095333 -0.0040581436
0003d0 3f 4b f2 bb 58 b0 ec bc 47 63 58 37 2e fc 68 bb
       -0.007394224 -0.028892681 1.2897718e-05 -0.0035550701
0003e0 1d 24 13 bd 9b 2a 21 bc 04 ed 02 3c 21 e4 11 3c
       -0.035923112 -0.009836818 0.007991079 0.008904488
0003f0 58 89 67 bb ba 06 3e 3c ce 88 6a bb 7c d4 76 bc
       -0.0035329666 0.011598283 -0.0035787108 -0.015065309

action_model._continuous_distribution.mu.bias f4 [6]
000000 ce f2 87 ba e5 17 d8 b8 b0 70 62 ba ee a1 a0 3a
       -0.0010372044 -0.00010304133 -0.00086380076 0.001225529
000010 fb 49 37 bb 6d 86 40 3b
       -0.002796768 0.0029377

action_model._discrete_distribution.branches.0.weight f4 [2, 128]
000000 69 33 a6 3b 48 53 c5 3b 1e 55 8a ba 58 17 82 bc
       0.0050720465 0.006021891 -0.0010553931 -0.015880272
000010 26 7d 0f bb e9 99 b7 3a 29 8c 2a bb 93 0d 8b bb
       -0.0021894663 0.0014007661 -0.0026023483 -0.0042435615
000020 10 5f 6a bb 5e 4f a9 b9 a6 22 84 3b bb 0d 06 ba
       -0.0035762228 -0.00032293325 0.0040324507 -0.00051137403
000030 10 15 87 bb 8a 3f e0 bb 71 59 1a bb 76 8c f9 3a
       -0.004122384 -0.006843512 -0.0023551846 0.0019039053
000040 0e bf 2a bc fb 4f 1c bc cf 91 b9 3b 3a 95 0d 3c
       -0.010421528 -0.009540553 0.0056631337 0.008641535
000050 7b c5 47 3a 85 29 09 3c 1e c7 a0 bc 8c e7 af bc
       0.00076206744 0.008371715 -0.019626196 -0.021472715
000060 7d 89 87 3a 5f 98 c6 bb d5 4b b6 bb 91 60 df 3b
       0.0010340657 -0.0060606445 -0.005563239 0.0068169315
000070 4e b9 13 bb 39 97 ac 3b 0f 79 23 bc c9 ec 50 bc
       -0.002254087 0.0052670506 -0.009977593 -0.0127517665
000080 5c 91 0b bb 64 e4 26 3c db 8a d2 39 45 ff d8 39
       -0.0021296358 0.0101862885 0.00040157777 0.0004138892
000090 46 0d 8c bb a4 35 43 bb ef 1e 61 b9 a7 21 de bb
       -0.0042740433 -0.002978661 -0.00021469196 -0.006778914
0000a0 72 00 81 3b 6b 45 3e bb f4 ec 64 3c ed f3 69 3b
       0.0039368207 -0.0029033076 0.01397251 0.003569837
0000b0 77 10 94 3b f8 1f 58 3c 30 d5 b6 3b 4a 7b 38 bc
       0.0045185643 0.013191216 0.005579613 -0.011259863
0000c0 bc ce be ba 9e 86 15 3c d0 a1 da 3a d5 f7 ab 3b
       -0.0014557461 0.0091263335 0.0016680304 0.0052480497
0000d0 88 b3 79 3c 51 b0 0c 3c f1 ce 13 bc 32 40 a3 bb
       0.0152405575 0.008586959 -0.009021507 -0.004982018
0000e0 1b 68 8b bb 9e ea a3 bb f7 40 ca ba dc 92 73 3c
       -0.0042543537 -0.005002334 -0.0015430738 0.014866557
0000f0 35 e6 83 bb 6a 63 fc bb 39 09 be bc 7c 5f 8b 3c
       -0.0040252456 -0.007702281 -0.023197757 0.017013304
000100 2b 22 b6 bb d8 e8 ae bb e3 a6 e9 3b bc 57 19 bc
       -0.0055582724 -0.0053378157 0.00713049 -0.009359296
000110 bb a7 1a bb 61 55 8b bc 07 99 d4 bb 90 34 95 3c
       -0.002359851 -0.017008485 -0.006487969 0.01821354
000120 67 f3 36 3a 4f 83 7b 3a 36 b8 48 bc 57 c9 44 bc
       0.0006979019 0.00095944566 -0.012250951 -0.012010894
000130 3a 0b 66 bb 2c ae e7 3c 0c a7 88 bb 00 20 52 3b
       -0.0035101906 0.028281294 -0.004170304 0.003206253
000140 2e 31 82 bb b0 b1 8d 3c 54 b0 e5 bb b2 4d 50 bc
       -0.003973148 0.017296642 -0.0070095453 -0.0127138365
000150 f4 e1 50 3c 8d bc cb bb 4c c5 d8 ba 89 38 60 bc
       0.012749184 -0.0062175454 -0.0016538291 -0.013685354
000160 42 6d a2 3b cc 6f ba bc e6 a3 29 bc 70 86 8f 3b
       0.004956872 -0.022758387 -0.010354018 0.00438004
000170 f7 d8 53 3c 3c e2 fb 3b 9b d2 18 bc 5d 31 61 bc
       0.012930146 0.0076868813 -0.009327556 -0.013744679
000180 55 54 bf 3b 11 d1 3e bc fd e8 a6 b9 fe 51 14 bc
       0.0058389106 -0.011646525 -0.00031835577 -0.009052752
000190 26 9c b6 3c fa d5 91 3c 1b 79 2b 3a da 54 98 b8
       0.022291254 0.017802227 0.00065411784 -7.26373e-05
0001a0 76 d2 c1 bb b2 21 50 bb 71 33 94 ba 92 dc 11 bc
       -0.0059149815 -0.0031758365 -0.0011306835 -0.008902686
0001b0 d4 12 51 3c 32 70 d1 bc 94 c5 53 bc 90 44 d5 3a
       0.012760837 -0.025566194 -0.012925524 0.0016271044
0001c0 9d b6 49 bc 83 86 74 ba 34 db 21 3c 96 86 32 ba
       -0.012311605 -0.0009327905 0.009878922 -0.0006810216
0001d0 40 62 a2 bb 4e e5 3d bc 57 80 c3 bb e1 5b 97 bb
       -0.00495556 -0.011590315 -0.005966227 -0.004619107
0001e0 e1 69 29 bc 87 7b 9e 3b 5b b7 12 bc 93 94 a3 3c
       -0.010340185 0.004836503 -0.008954848 0.019968307
0001f0 98 3a 7e ba 1e 37 4c bc 8b 0f ab bc 8a f7 26 3c
       -0.0009698062 -0.012464313 -0.020881435 0.010190854
000200 ac d2 2c b8 66 5d 4b bc c6 77 2b bc 6a e5 b3 bb
       -4.12042e-05 -0.012412405 -0.010465568 -0.005489995
000210 00 2b c3 3c 92 53 82 bc 0f 13 31 3c d3 b3 29 3c
       0.023824215 -0.01590899 0.010807767 0.010357815
000220 d7 20 0f 3b 52 70 91 bc 39 bc c3 3b cf 2d c5 bb
       0.0021839642 -0.017753754 0.0059733656 -0.0060174237
000230 15 e4 6a bb 79 69 88 3c a7 06 46 bb 7f 41 d6 3c
       -0.0035841514 0.016651856 -0.0030216367 0.026154278
000240 44 c9 fb ba dc 15 18 ba fd a4 ad 3c 7f 17 57 bc
       -0.0019209762 -0.0005801597 0.021196837 -0.0131281605
000250 14 b2 1d 3a a2 46 49 bb 8f d8 ae bb c4 62 c8 3c
       0.00060156104 -0.0030712266 -0.0053358744 0.024461158
000260 5b ee 39 bc d4 44 68 3a 65 b1 42 bb ed 57 00 bc
       -0.011348332 0.0008860354 -0.0029707786 -0.007833463
000270 9f a2 43 3c 37 15 ff bb 5e f2 fc bb 20 bb 95 b9
       0.011940627 -0.0077845114 -0.007719322 -0.00028558914
000280 42 6c 13 3c 29 b4 49 bc 3c 94 d4 3b ca ae 17 3c
       0.008997979 -0.01231102 0.0064873975 0.009257982
000290 9e d9 7b bc 06 7f 1b bb fa 7c d9 bc 96 50 13 bc
       -0.015371708 -0.0023726835 -0.026548851 -0.008991381
0002a0 af 30 25 ba 01 b8 a3 bc 7e ea 3c bc 89 89 d1 bb
       -0.0006301505 -0.0199852 -0.011530517 -0.0063945693
0002b0 9e 52 13 bc f9 40 a6 3b 07 ab b7 3b 10 96 e5 3c
       -0.008991865 0.0050736633 0.005605105 0.028025657
0002c0 b5 08 6f 3a a5 8b 90 b9 41 2a 98 bc 9a 29 1a bb
       0.0009118424 -0.00027569864 -0.018574836 -0.0023523332
0002d0 fb 4d f9 ba a2 8b 94 bb 87 4d 15 3b b8 5d 54 bc
       -0.0019020432 -0.004533247 0.0022781806 -0.012961797
0002e0 c7 e3 81 bc a4 b1 f3 3b e3 f9 34 ba 62 ea 06 3c
       -0.015855683 0.007436948 -0.0006903691 0.008234592
0002f0 ef 0b b4 3c 6e 52 bd 3b a6 b5 0c 3d a7 57 6a bb
       0.021978347 0.0057776487 0.03435292 -0.0035757811
000300 89 ba 1a bb c4 b7 7f 3c f2 78 2c bc e4 d6 57 3a
       -0.0023609719 0.015607778 -0.0105268825 0.00082336203
000310 55 74 01 bc 0c ff 21 3c 31 c1 78 bb ff a1 c2 bb
       -0.007901271 0.009887468 -0.0037956948 -0.0059397216
000320 f3 d5 ac 3b de 18 03 bc 14 65 3e 3b 00 64 57 3c
       0.005274528 -0.008001534 0.0029051946 0.0131464
000330 06 11 25 3b f0 62 b8 bb 73 fe db 3b 23 37 f2 3a
       0.0025187149 -0.0056270286 0.0067136823 0.0018479567
000340 4c 44 1f 3c f7 9c cd bb 95 61 f9 37 5b 92 be bc
       0.009720873 -0.006274815 2.9728553e-05 -0.023263147
000350 06 ee 35 3b 7a d3 1a 3c 2e 48 b8 3b cf f1 94 3b
       0.0027760281 0.009449834 0.005623839 0.0045454274
000360 5b 9c 21 3c cf c0 cb 39 64 0b 66 3b eb 83 be bc
       0.009863938 0.0003886283 0.0035102004 -0.023256263
000370 63 03 3b 3b 94 2b 62 bc 03 5c 5b 3b 1c 48 22 3b
       0.0028535954 -0.013804335 0.0033471591 0.0024762219
000380 73 dd 08 3b 69 24 f2 3b 4a 08 86 ba 1f 7d 32 3c
       0.0020883947 0.0073895943 -0.0010225859 0.010894089
000390 9f ad 79 bc a7 81 5e ba d0 61 05 bb 80 32 ea 3b
       -0.015239148 -0.00084879476 -0.002035249 0.0071471334
0003a0 e9 05 9a b9 0f 46 6f 3c 56 57 97 bc 9d 2b cc 3b
       -0.00029377572 0.014604106 -0.018474262 0.006230785
0003b0 99 ed 24 3c fe 7d 7f 3c bb 48 b8 3b 93 0e da bb
       0.010066413 0.015594004 0.0056239045 -0.0066545694
0003c0 e5 bb 25 3c cf 16 c4 3c a1 67 3c bc c0 4c 02 3c
       0.010115598 0.023936657 -0.011499316 0.007952869
0003d0 5b 5e e7 3b c4 8a e3 3b 73 b9 c0 3a 55 7a bf bc
       0.0070608086 0.0069440324 0.0014703706 -0.023373762
0003e0 79 5f cf 3b d8 ea 48 bc 2f 6a 11 bb b9 de b7 bb
       0.00632852 -0.012263022 -0.0022188534 -0.0056112674
0003f0 9a fa db 3a b9 21 82 3c 27 68 e6 ba 55 7e 21 bc
       0.0016783059 0.01588522 -0.0017578647 -0.00985678

action_model._discrete_distribution.branches.0.bias f4 [2]
000000 a3 6b 2e bc a9 6b 2e 3c
       -0.01064578 0.010645785

action_model._discrete_distribution.branches.1.weight f4 [2, 128]
000000 b4 0e 4e bb cc 39 7d bb c1 a5 4b 3c 19 f7 62 bb
       -0.003144187 -0.0038639186 0.0124296555 -0.0034632145
000010 bb de b6 3c fc 8c 78 bb 0a 3e 03 b9 35 7f 26 bc
       0.022323003 -0.003792583 -0.00012516245 -0.010162164
000020 4a a1 c0 bb 9f 86 c8 39 7e 4b 99 bb a1 a3 12 bc
       -0.005878602 0.00038247273 -0.004678189 -0.008950145
000030 7b e2 1a 3b e0 6c 44 3b 53 d4 13 bc b7 32 59 3b
       0.0023633528 0.002997212 -0.00902279 0.00331418
000040 90 a8 18 ba 81 42 a2 bb aa 22 13 3d cb 83 70 3c
       -0.00058234576 -0.0049517755 0.03592173 0.014679859
000050 c3 3a 7d 3b 8a fb 0e 3b 9f 2b f8 3b c1 30 0d 3d
       0.003863976 0.002181741 0.0075735594 0.034470323
000060 b7 c2 3e bc c3 a5 42 bb a7 78 e8 ba 7a 23 51 ba
       -0.011643103 -0.0029700852 -0.0017736153 -0.00079780037
000070 16 b3 73 3c 17 35 0a bc 4e 39 3a b9 77 35 4e bc
       0.01487424 -0.008435509 -0.0001775969 -0.012585989
000080 2b cb 00 3c 3a 1e a2 3c 0a 46 66 3c 47 a1 15 3c
       0.007860939 0.019789804 0.014054785 0.00913269
000090 85 1c 09 bb 55 58 d3 3c 8c 67 3b 3c 1b 51 cb ba
       -0.002092154 0.025798956 0.011438262 -0.0015511842
0000a0 dc ae ac ba ad 8e 03 3c 2d 6e 9f 3b ac 1c a3 3a
       -0.0013174671 0.008029622 0.004865429 0.0012444458
0000b0 cc 2c 83 ba b3 b4 85 3b 5e 19 b7 bc b3 18 6b bd
       -0.0010007857 0.004080379 -0.022350963 -0.057396602
0000c0 ce 4e 8f bc 4a d1 c5 3b 0a b1 bb 3c e6 1d de 3b
       -0.017493632 0.006036912 0.022911567 0.0067784665
0000d0 20 b5 48 3b 13 eb d8 bb 55 8e 2f 3b 00 b2 9a 3c
       0.0030625537 -0.00661982 0.0026787717 0.018883705
0000e0 2d 43 d2 3a b8 21 54 bc d3 dc 5b 3b a0 8a d3 bb
       0.0016041748 -0.012947492 0.003354837 -0.0064557344
0000f0 2b 81 28 bc b9 ed 89 bb 4f 89 b8 3c fa 01 ea 3c
       -0.010284702 -0.004209247 0.022526411 0.028565396
000100 ec f8 c0 bb fb eb 55 bb 97 b2 f9 3b f9 aa 43 bc
       -0.005889049 -0.0032641876 0.0076201665 -0.0119426185
000110 79 6e 3a 3c 4b cc e6 bb a7 13 04 3c cc f4 18 bc
       0.011378878 -0.0070433966 0.008061326 -0.009335708
000120 c0 e8 1a bc d7 d4 ca 3b bb 8c 56 bb 7c 6e 03 3b
       -0.009454906 0.0061899233 -0.003273769 0.0020054867
000130 ee 47 d1 3b 5e 9e 2c 3a e6 b2 c9 bb 37 02 ff 3b
       0.0063867485 0.0006584878 -0.0061553596 0.0077822465
000140 3d b8 9e 3c f2 b1 64 3b 66 0d 8a bb 99 01 f4 bb
       0.019374961 0.0034896103 -0.004213023 -0.0074464795
000150 b7 79 2f bc 7d 3b 52 bc 5d f3 20 ba 2b 44 72 bc
       -0.010710171 -0.012831566 -0.00061397796 -0.01478676
000160 c3 92 bf 3b 0b 21 20 bc 7f 04 a2 3b 5b 49 4d bc
       0.005846353 -0.009773503 0.0049443836 -0.012529696
000170 e7 cb d7 3a f5 53 14 bb b2 04 fc 3b 5b b4 a8 3a
       0.0016463966 -0.002263305 0.0076909894 0.0012871133
000180 fe 7a 46 bc 72 62 32 3c 71 68 67 3c f8 9b 89 bb
       -0.012114285 0.010887729 0.014124022 -0.004199501
000190 75 e8 0c 3c 42 7c 2b bb 49 03 b5 3c c5 70 b5 bc
       0.008600344 -0.0026166593 0.022096293 -0.0221485
0001a0 2f 9b a9 3c fd a7 73 bb c3 5d c6 3b d5 51 fe 3a
       0.02070388 -0.0037178986 0.0060536577 0.001940305
0001b0 7f 1a 1d 3c 77 56 21 bb 50 c5 a4 3b 95 c4 fe 3a
       0.009588837 -0.0024618187 0.0050284043 0.0019437248
0001c0 5c e8 af 3b 43 9f f0 3b 3a da 3e 38 48 9c f8 3b
       0.0053682756 0.007343204 4.550277e-05 0.0075869896
0001d0 25 fe 88 bc 1e 7f 66 bb 2a 17 70 bc 83 43 02 3c
       -0.016722748 -0.0035170983 -0.01465396 0.007950666
0001e0 48 87 56 3c 3a 18 13 bc b1 ad d0 3b 5b c2 90 3c
       0.013093777 -0.008977944 0.006368362 0.0176708
0001f0 a0 a7 4d 3c 9a 66 45 3b 63 82 cd 3a ff 19 2b bc
       0.012552172 0.003012097 0.0015679117 -0.01044321
000200 74 f6 d3 3a 43 8b 20 3c 55 84 8f 3c df bf 07 3c
       0.0016171471 0.009798828 0.017519156 0.008285492
000210 77 6d 0d bd 13 fb a8 bb 45 e6 f1 b8 67 fe 0d 3c
       -0.034528222 -0.0051568835 -0.000115346666 0.008666611
000220 4f 7f 54 3c 15 07 e2 bb bc c5 c2 3b 23 6f 97 ba
       0.012969806 -0.006897817 0.005943982 -0.0011553507
000230 4d 3d 37 ba 61 b6 11 39 54 fc 76 bc 44 11 33 ba
       -0.00069900305 0.00013896219 -0.015074808 -0.0006830881
000240 af 07 06 3b ed cc e7 3a 1e 7f 22 bd 9c a0 b5 3b
       0.0020451357 0.0017684974 -0.03967201 0.005542828
000250 91 da cc bb f7 69 d3 3b 26 f7 45 ba 81 31 0a bd
       -0.006251641 0.006451841 -0.00075517816 -0.033738617
000260 b9 57 e2 3b 17 dd ec 3b 4d db 41 3c bb 15 9d 3c
       0.00690743 0.0072285044 0.011832071 0.019175401
000270 d1 d9 0c 3c cd 8b 41 bc 4a 79 0e 3b c5 5f 2a 3c
       0.008596853 -0.011813116 0.0021739774 0.01039881
000280 af 2a 36 bb ff 7d cf 3b 37 3c 77 3c 8c 4b 50 3b
       -0.0027796437 0.0063321586 0.01509004 0.003178331
000290 0c ec 73 3c 74 3b 3c bc 1a 45 3b bc 22 89 17 3c
       0.014887821 -0.011488784 -0.011430049 0.009249004
0002a0 05 fb 7b bb 26 d4 ce 3b 61 77 5a 3c 2b fe 69 bb
       -0.003844918 0.006311911 0.013334126 -0.0035704474
0002b0 4e 9d 30 3b 61 a3 89 3c 46 72 a5 3c f0 7b 01 3d
       0.002694923 0.016801538 0.020196091 0.031612337
0002c0 51 7d 3a bc 05 dc 51 3c fd 5b 18 3b e1 3f e7 bb
       -0.011382417 0.012808804 0.0023248189 -0.0070571755
0002d0 28 5c 16 39 13 8c 8d bc 0b b4 e9 bb 2c fb 3d bc
       0.00014339446 -0.017278707 -0.0071320585 -0.011595529
0002e0 b0 31 88 3b 97 85 f5 3a 2c 61 17 3c 59 29 50 bc
       0.004156314 0.001873183 0.009239476 -0.012705171
0002f0 3d df a5 ba 6c b2 5d 3c ca db 77 3b f3 c4 e7 3b
       -0.0012655031 0.013531309 0.0037820213 0.0070730387
000300 9d 2e 90 bb 36 d7 5e bc 6e 81 d6 bb 85 15 3d 3b
       -0.004400088 -0.013601115 -0.006546191 0.0028851938
000310 d3 61 4d ba 66 11 4b bc 89 23 8b bb f5 de e2 bc
       -0.00078347063 -0.012394285 -0.0042461795 -0.027694205
000320 c2 5f 1b bc d0 f5 81 bc 4f f8 22 bc 47 fc 08 ba
       -0.00948328 -0.015864283 -0.009946897 -0.00052255805
000330 e2 90 11 3b bc dd 3b 3c 2d e4 c3 ba 44 d1 0c 3c
       0.00222116 0.01146644 -0.0014945321 0.008594815
000340 0f 31 35 bb b0 56 e9 b9 47 de ed bb 5c 39 75 39
       -0.002764765 -0.0004450581 -0.0072591635 0.00023386389
000350 bd 1c 4b bc b4 ec 5d 3c 2c 71 dc 3b ed e8 52 3b
       -0.012396988 0.013545204 0.0067273583 0.0032182292
000360 bc 45 63 bc 32 32 25 3a f0 ac ae bb 49 84 8e 3b
       -0.013871606 0.000630173 -0.0053306744 0.0043492657
000370 06 15 7f 3c b4 14 6a bc d3 a6 a9 b9 04 a9 32 3b
       0.015568977 -0.014287163 -0.00032358486 0.0027261386
000380 89 94 33 3c b6 08 07 bc ad 37 c3 bc 7b 17 53 bc
       0.0109607065 -0.008241823 -0.02383026 -0.012884016
000390 00 5c d4 3b 5d 80 63 bc e7 43 4c bb 86 1f e3 3b
       0.006480694 -0.013885585 -0.0031168403 0.006931248
0003a0 9d 43 02 bd 0c ff a3 3b dd ff 87 bc ae 63 f1 3a
       -0.031802762 0.005004769 -0.016601497 0.0018416548
0003b0 f6 1e 6b 3c 06 ca ab bb 1e b9 5a bb e5 ce c3 3b
       0.014350643 -0.005242589 -0.0033374499 0.0059755915
0003c0 6c e0 42 3b 5b a7 46 bb ec 22 b3 bb ad 65 4c 3b
       0.0029735817 -0.0030312154 -0.0054668095 0.0031188533
0003d0 6b 26 b8 bb 02 d9 26 39 3d 6c bd bb 46 21 18 bc
       -0.005619814 0.00015911835 -0.0057807253 -0.009285277
0003e0 67 4f d9 3b 12 7d 17 3c 3a 7a 12 bc fe 6c aa bc
       0.00663178 0.009246128 -0.008940274 -0.020803925
0003f0 ea 86 95 ba cb 3a 02 bb 52 c7 22 bb 3b c4 06 bb
       -0.0011408005 -0.001987147 -0.0024838042 -0.002056374

action_model._discrete_distribution.branches.1.bias f4 [2]
000000 6b 13 b3 3a 22 13 b3 ba
       0.0013662403 -0.0013662318
