Assets/Models/My Behavior.onnx (onnx, 36199 bytes, 16 tensors)

discrete_act_size_vector f4 [1, 3]
000000 00 00 00 40 00 00 00 40 00 00 00 40
       2.0 2.0 2.0

network_body.observation_encoder.processors.0.normalizer.running_mean f4 [17]
000000 ff f6 c3 3b 90 2f 95 3e 45 e4 3d 44 44 00 a8 3a
       0.005980372 0.2913785 759.5667 0.0012817462
000010 3a 89 ac ba 71 7f 22 41 89 36 13 43 64 ef 30 41
       -0.0013163455 10.156114 147.21303 11.058445
000020 89 36 13 43 fd 73 2c 41 89 36 13 43 10 bb dd 40
       147.21303 10.778317 147.21303 6.929085
000030 2e a4 6b 3e 2b 37 a9 3d 79 55 c5 3d 73 77 97 bd
       0.23011848 0.082624756 0.09635443 -0.0739583
000040 9c c4 80 bb
       -0.0039296877

network_body._body_endoder.seq_layers.0.weight f4 [64, 17]
000000 aa 5a e9 be 03 5c f2 3c c5 55 89 bd 7c 39 b4 3e
       -0.45576984 0.02958489 -0.06705812 0.35200107
000010 13 44 15 3d 8f 07 8b 3e aa f8 ad bb b9 2c ae 3e
       0.036441874 0.27154204 -0.005309184 0.34018496
000020 c1 78 be bd 02 08 ee bd 59 e9 c0 bd dc 43 54 3e
       -0.09300376 -0.11622621 -0.094195075 0.20729011
000030 72 d0 df bd 06 d5 db bc 78 16 e3 3e 23 6f 46 be
       -0.1092843 -0.026834976 0.4435308 -0.19378333
000040 e7 54 89 3e 7d 6d 2c be c8 1d 32 3f c7 a2 99 be
       0.26822588 -0.16838641 0.6957669 -0.30007002
000050 4d ba 3c 3e f8 54 ad be d5 e2 04 3e 8e 63 d6 3e
       0.18430443 -0.3385389 0.12977155 0.4187283
000060 cf be 95 bd be 44 d0 3d 85 a4 1f 3d a7 d8 a2 3d
       -0.073117845 0.101693615 0.038975257 0.079514794
000070 8e 73 c7 3e 91 54 8b 3d cc 06 ab 3e 49 6a 60 be
       0.3895535 0.06803239 0.33403623 -0.21915545
000080 2b 53 12 3d 8f 6c c9 be 19 eb 05 3e 58 a9 d9 3e
       0.035723846 -0.39340636 0.13077964 0.42512012
000090 41 f3 9c 3c 6b 81 50 3d be d2 67 3e e4 3a f7 3e
       0.019158961 0.050904673 0.22638986 0.48287117
0000a0 93 87 e5 bd 90 fb ef be dc 0a 3a be af 50 11 3e
       -0.11207499 -0.46871614 -0.18168205 0.14190935
0000b0 5e f9 d0 3a 47 9f 43 be b0 4a 10 bf af 29 40 3e
       0.0015943458 -0.19103728 -0.56363964 0.18765901
0000c0 bb 8c 0f 3f f3 57 4a bb b9 a8 fe bd b3 42 8b bd
       0.5607411 -0.0030875176 -0.12434525 -0.06799831
0000d0 8c 8a ed bd 64 f1 62 be 56 0f e6 be 5d 99 e4 3e
       -0.11598691 -0.22162396 -0.44933575 0.44648257
0000e0 6e b3 37 be 73 70 91 be 44 8b 3a 3d 29 9c 16 3e
       -0.1793954 -0.28406104 0.04554297 0.14708008
0000f0 d9 0e ba be eb 43 84 3e 07 47 fa 3e 9a 88 97 be
       -0.36339453 0.25833067 0.48882315 -0.29596406
000100 a9 32 a1 be e1 28 05 bf 1b 6e 1c be 3d 6d 61 3e
       -0.31483963 -0.520155 -0.15276377 0.22014327
000110 af 89 5a bf cf e5 84 be 3f be 83 bd 65 74 10 bf
       -0.8536634 -0.2595658 -0.06432771 -0.56427604
000120 e2 08 ce bd 92 d8 58 bd ce ab fb 3d 88 f7 c9 3d
       -0.10060288 -0.052940913 0.122886285 0.09861666
000130 14 9f 24 be 7b ed c7 bc f6 67 d5 3e 56 c0 6b be
       -0.16076308 -0.024405232 0.41680878 -0.23022589
000140 c2 39 b8 3d d3 04 bc 3d 9d 2a 10 be fd 67 c2 3e
       0.089953914 0.09180608 -0.14078756 0.37969962
000150 57 b5 9b 3e f4 d8 2b 3e bd 3f 68 3f 37 de 4f 3e
       0.3041179 0.1678198 0.90722257 0.20299612
000160 0c 43 07 3e 66 d7 cc be f7 23 c2 be 40 28 44 bc
       0.1320917 -0.40008086 -0.37918064 -0.011972487
000170 25 cb ad 3e f6 ff 86 3e 44 6d 08 be da 51 f0 3d
       0.3394405 0.26367158 -0.13322932 0.11734362
000180 f4 58 e4 be 85 a2 df bd 4c 2e 07 bf 64 b4 c6 bd
       -0.44599116 -0.1091967 -0.5280502 -0.097023755
000190 01 b3 33 3e d8 71 f8 be 3c 43 a5 3e 83 5c b0 3e
       0.17548753 -0.48524356 0.32277858 0.3444558
0001a0 fa 1f a6 bc 56 cf 10 be 7b 60 16 bf fa 8f 6b be
       -0.02027892 -0.14141592 -0.5874097 -0.23004141
0001b0 df dc 7e 3d 96 31 64 bd 71 4b 86 3d 28 c8 83 3e
       0.062222358 -0.05571135 0.06557358 0.25738645
0001c0 3a 73 70 be 73 56 ef 3e 0f e4 c5 be 28 22 81 3e
       -0.23481455 0.46745643 -0.38650557 0.25221372
0001d0 3a cd 29 3e 47 e3 d2 bd 6c a4 4b be 2e da 00 bf
       0.16582194 -0.10297256 -0.1988694 -0.50332916
0001e0 74 76 d3 be 88 37 aa be 50 94 be 3e f8 8a c0 3e
       -0.4130131 -0.33245492 0.37222528 0.37606025
0001f0 1b 79 0f 3e 8d fe 2f 3d c4 11 02 bf c6 7e a7 be
       0.14011042 0.042967368 -0.5080836 -0.32713908
000200 4f 41 0a bd 5f 06 42 3e c7 63 2c 3e ea 1d 49 bd
       -0.03375369 0.18947743 0.16834937 -0.049100794
000210 c3 e7 15 3f d6 8e 71 be fe 15 96 3e 3c 24 7f 3e
       0.58556765 -0.23589644 0.29313654 0.24916166
000220 34 8a fe bc 87 bc 2b 3f 59 54 22 3e fa f5 6f 3e
       -0.03107176 0.67084545 0.15852489 0.23433676
000230 e8 20 ea 3e 2c da c4 3d 74 31 c2 3b cb 51 88 3d
       0.4572823 0.096119255 0.0059263054 0.06656226
000240 df 6a 50 3d be 9b 7b 3e fb 94 a7 bd db 03 df bc
       0.05088317 0.2457113 -0.08182713 -0.027223518
000250 6f 2b 7c 3c 4e 43 4c bc 76 f9 74 be 53 66 af 3d
       0.015391215 -0.012467219 -0.23923287 0.08564439
000260 67 d1 06 bf 0a c0 ba bd 41 0e 1d 3c f7 b5 fa 3e
       -0.5266327 -0.0911866 0.009585918 0.48966953
000270 ab aa d5 3d bb 41 fa bd ac e2 45 be a0 f6 e7 be
       0.10432943 -0.12219568 -0.1932475 -0.45305347
000280 f9 26 0e be af c8 15 be c2 22 7d 3e 58 24 a6 3e
       -0.13882054 -0.14627336 0.2472029 0.32449603
000290 c3 2f 8e 3d 91 fd 07 be 36 ea aa be 0a ec 9a 3e
       0.069427036 -0.13280322 -0.33381814 0.3025821
0002a0 b6 af 01 3f 0c 71 12 bf 94 44 1c 3f 1b c1 81 3b
       0.5065874 -0.57203746 0.6104214 0.0039597875
0002b0 a2 cb 4c bd ca 31 81 bd a8 22 63 3c b6 07 b3 3e
       -0.049998887 -0.06308325 0.013863243 0.3496682
0002c0 43 92 24 be f8 a2 92 be 46 87 07 3e ba 13 6c be
       -0.1607142 -0.2863996 0.13235196 -0.230544
0002d0 bf 16 13 bd d4 f8 46 3e b6 07 0f bf 15 c2 7e be
       -0.035910364 0.19430858 -0.5587114 -0.24878724
0002e0 d1 62 85 be 64 60 30 be 88 f1 9f bd 51 c2 22 bf
       -0.26051953 -0.1722427 -0.0780974 -0.63577753
0002f0 b2 b8 30 3e e4 11 11 3e 8b fd b9 3d 4d e0 94 be
       0.17257956 0.14166981 0.090815626 -0.29077378
000300 54 50 ea bd fe 61 5c 3e 38 ac 39 bc 39 ca 09 bd
       -0.114411026 0.21521756 -0.011332564 -0.03364012
000310 df 6e d0 bd b7 0e da 3b dc 51 40 3e 2b 06 b6 be
       -0.10177397 0.006654586 0.18781227 -0.3555158
000320 de af 9c 3c 24 2f 69 bf c3 2e 3c 3f 53 4d 1e bf
       0.019126829 -0.91087556 0.7350885 -0.6183674
000330 02 f4 dd 3e 0f a9 e2 bc 6a fb 1f bd 9e f5 20 be
       0.43350226 -0.027668504 -0.039058127 -0.15718696
000340 a8 40 23 3e 7b b0 06 bf 53 4e e7 be 45 cf cf 3e
       0.15942633 -0.5261304 -0.45176944 0.40587822
000350 74 9d 56 be 02 e3 ad be ee 52 a4 bd da 87 79 bd
       -0.20958501 -0.33962256 -0.0802363 -0.060920574
000360 d9 1a 33 be 7d 67 0e bf ad ce 03 3d be 35 f8 3c
       -0.1749071 -0.5562666 0.032179523 0.030299064
000370 94 4b d1 3c 37 ed 0b bd 9d fe 13 3d 14 79 4c 3d
       0.025548734 -0.034161773 0.03613149 0.049920157
000380 a1 51 17 3f a7 88 b7 3e f1 e6 6d be 50 36 ac bc
       0.5910893 0.35846445 -0.23232628 -0.021021992
000390 b3 3f e1 bd 5e 72 b8 bd 7d 10 6a 3b b5 09 c5 bd
       -0.10998478 -0.09006189 0.0035715394 -0.09620992
0003a0 c4 62 ad 3e a8 53 91 3e 03 01 82 be e1 af f8 3d
       0.33864415 0.28384137 -0.25391397 0.12142921
0003b0 c6 06 d7 3d 87 c3 e7 3c ac f3 9a 3e 26 a2 b3 3e
       0.10499339 0.028291477 0.30264032 0.35084647
0003c0 8c c3 b0 bb 88 ec 18 3f 26 5e 0e be d2 c9 8a 3e
       -0.0053944048 0.5973592 -0.13903102 0.27107102
0003d0 6e 46 25 bd a7 2c 84 bd 94 07 27 be 1f d1 1e 3e
       -0.04035037 -0.06453829 -0.16311485 0.15509461
0003e0 d6 89 e6 3c 67 7a e2 3e 4b b7 00 bd 60 66 3a bd
       0.028141897 0.4423401 -0.0314248 -0.04550779
0003f0 aa 15 fc 3e a8 37 ec be 67 6f 25 bd f8 9f 04 3e
       0.49235278 -0.46136212 -0.040389445 0.12951648

network_body._body_endoder.seq_layers.0.bias f4 [64]
000000 04 32 0d 3e 54 a1 0e 3e 59 74 0b 3e c3 e1 72 3e
       0.1378861 0.1392873 0.13618602 0.23718934
000010 7e ce f1 3d 1f 93 2b 3e bd c2 36 3e 8e 26 1b 3d
       0.118069634 0.16755341 0.17847724 0.037878565
000020 61 8f ec bc 87 a1 25 3e 76 0b 61 3e 9b 10 5f 3e
       -0.028876962 0.16174899 0.21977028 0.21783678
000030 d6 71 98 3e 3b 57 5f 3e 5e 7f 5e bb 11 76 75 3d
       0.2977435 0.2181062 -0.0033950428 0.05992705
000040 11 29 c0 3d 21 a3 34 3d 8d ab ba 3d 51 7f 3e 3c
       0.09382833 0.044100884 0.09114752 0.011627034
000050 8f ba cd bd 36 1b 60 3d f5 95 f6 3d 15 84 5a 3e
       -0.10045349 0.05471345 0.12040321 0.21339448
000060 bf d0 90 3e 01 92 41 3e 46 c8 03 3d 70 59 3c 3e
       0.2828426 0.18903352 0.032173418 0.18393493
000070 80 bb 81 3e 53 81 f3 3c 31 4a 86 3d af b2 00 3e
       0.25338364 0.029724753 0.0655712 0.12568162
000080 1f d0 2c 3e 5c f7 6b 3d fe 03 05 3b 55 ae 40 3e
       0.16876267 0.057608947 0.002029657 0.18816502
000090 d2 a5 8b 3e 0c 7f e7 3d cd 64 1a 3e 47 81 14 3d
       0.27274948 0.11303529 0.15077515 0.0362561
0000a0 2f d8 f3 bb de 32 f4 3d 47 66 f5 3d ba 76 1a 3e
       -0.0074415426 0.11923765 0.119823985 0.15084353
0000b0 d9 93 b6 bd bd 5e 68 3e bd ea 04 3e 7a 7f 13 3e
       -0.089149185 0.2269239 0.1298017 0.14404097
0000c0 cd 09 27 3e c6 b6 f7 3d e0 d1 7f 3e f0 52 c9 bd
       0.16312332 0.12095408 0.24982405 -0.09830272
0000d0 bc 19 01 3e e8 8b 20 3e 7c b2 3f 3e b8 29 dc 3b
       0.12607473 0.1567837 0.1872043 0.0067188405
0000e0 cd 12 e1 3d 07 cf 25 3e e1 a6 a6 3e d1 e0 31 3c
       0.10989914 0.16192256 0.32549194 0.010856823
0000f0 a5 9b 48 3e 03 29 a5 3d 15 92 b5 3d 16 36 5f 3e
       0.19590624 0.08064463 0.088657536 0.21797976

network_body._body_endoder.seq_layers.2.weight f4 [64, 64]
000000 0b ce bd 3d 49 2d 52 3e 93 e8 b1 3d ed f1 44 bd
       0.09267815 0.20525087 0.08686938 -0.04808228
000010 7b f0 4d bc 3d 09 75 3d dc 9a 25 3d 4c 23 ba ba
       -0.012569542 0.059823263 0.04043089 -0.0014201193
000020 0b 88 d5 3d 9f 75 a9 bd 50 52 a0 be 43 82 b9 3d
       0.10426339 -0.082743876 -0.313128 0.090580486
000030 ac d5 4e 3a 30 9e 18 3e b0 2b b7 bd 34 3b 37 3d
       0.0007890116 0.14904094 -0.089438796 0.044734195
000040 3b 38 08 bc f7 44 ce 3d fd bc e7 3d 62 b8 83 3d
       -0.008314188 0.10071748 0.113153435 0.064316526
000050 25 2a ce 3c 30 f6 b3 bd a9 9d b6 3d 16 ea 94 bd
       0.02516658 -0.08787191 0.0891679 -0.07271211
000060 47 5d d0 3c 97 ce ac 3d 53 65 0e be 22 50 f0 3c
       0.025435103 0.084378414 -0.1390584 0.029335085
000070 ff f5 e1 bd f1 7b 6c 3e 3c d5 26 3d 43 0d fd 3d
       -0.11033248 0.23094155 0.0407307 0.12356045
000080 bf e1 75 3e 7e 5e 0b be f9 8e 52 3e 45 3b d2 3b
       0.24011897 -0.13610265 0.20562352 0.006415757
000090 e7 ed 17 be 52 fd 0b 3c 08 93 ff bd 88 db 76 be
       -0.14836846 0.008544283 -0.12479216 -0.24107182
0000a0 8f 6b 28 bd 4d 37 31 3e 34 bb 03 3e 23 b4 28 3c
       -0.0411182 0.17306252 0.12864381 0.010296854
0000b0 8d e2 e6 3c 96 6c 83 3d 68 9a 80 3e 84 f3 d8 3d
       0.0281842 0.064171955 0.25117803 0.10593322
0000c0 f2 66 42 be ea c0 16 bd 02 2e 79 be 8d 32 7b 3b
       -0.18984583 -0.03680507 -0.24333957 0.003832969
0000d0 85 29 a6 bd f0 2e 45 3e c8 cd 3b be 39 4b 7b be
       -0.08113388 0.19256186 -0.18340218 -0.24540414
0000e0 5e d9 33 be 55 d5 c7 3d b3 e6 02 3e 94 f0 e4 3d
       -0.17563388 0.09757487 0.12783317 0.11178699
0000f0 6e 48 66 3d d0 ce f9 bd 36 13 17 bd 1d 3c 26 bd
       0.056221418 -0.121976495 -0.036883555 -0.040584672
000100 ee 58 3f be 2d 52 20 bb 19 56 54 bd 79 3c 54 3e
       -0.18686268 -0.0024463043 -0.05183992 0.20726193
000110 60 1a ce bc 6d a7 04 3e 66 aa 5a bb 93 63 e6 3e
       -0.025159061 0.12954493 -0.0033365726 0.44997844
000120 b8 c8 ba be 2f 8c 80 be 2f fb 88 bc 2c 78 97 3d
       -0.3648126 -0.25106952 -0.016721336 0.07395968
000130 98 5a 5e 3e 4e 9d 4a 3e 0a de 61 be 22 a2 af 3e
       0.21714246 0.1978657 -0.22057357 0.34303385
000140 d2 65 1e 3d fe c5 ee be 38 66 af 3d 11 04 0a be
       0.038671322 -0.4663543 0.085644186 -0.13478114
000150 10 98 42 be aa b5 8d 3d 07 1c 0d be b4 ac 9e 3e
       -0.1900332 0.06919415 -0.13780223 0.30991137
000160 35 cc 8b be 5d 62 8d 3d 59 8e 60 be a9 09 b8 bc
       -0.27304235 0.06903527 -0.21929301 -0.022465544
000170 ba 41 c6 3d 05 be f2 bd 17 2f 28 3e b4 95 d8 be
       0.09680505 -0.118526496 0.16424213 -0.42301714
000180 b2 f0 71 3d e3 04 9c 3d c9 35 59 bd 94 14 83 3e
       0.059067436 0.076181196 -0.05302981 0.25601637
000190 fc 78 69 be 8a 5f 42 3e d4 76 20 be 25 88 51 3e
       -0.22800058 0.18981758 -0.1567033 0.20462091
0001a0 66 e7 7b be 82 0d d2 3c bb 03 81 3e 48 1b 05 bb
       -0.2459999 0.025641207 0.2519816 -0.002031045
0001b0 42 35 2c be e3 7b 60 3e c0 49 8b be 5f c4 39 3e
       -0.16817191 0.21922259 -0.27204704 0.18141316
0001c0 49 7a 8c 3e cb a0 d1 bd 37 4f 7e 3e 42 67 53 3d
       0.27437046 -0.10235747 0.24834906 0.051612146
0001d0 c1 48 e1 be 2e 1e 84 bd de 06 36 be 38 c0 35 3e
       -0.4400082 -0.06451069 -0.17776057 0.17749107
0001e0 0a 41 6a be 6a 5f fc bd e5 7f 14 bd 79 47 17 3d
       -0.22876373 -0.12322886 -0.036254782 0.036933396
0001f0 9f 17 8b 3d 67 80 98 3d 17 30 14 bd aa 31 14 3d
       0.06791615 0.07446366 -0.036178675 0.036180176
000200 31 00 6f 3e ab 24 12 3e 6f 51 a8 bd 39 e5 12 bd
       0.23339917 0.142718 -0.08218657 -0.035863135
000210 a4 01 bb bc 3a 40 e5 3d 47 92 ab 3e 39 6e d2 3e
       -0.02282793 0.11193891 0.33510038 0.41099718
000220 10 d6 5c be 8b 43 b6 3d 85 8c 42 bd 37 8f ce ba
       -0.21566033 0.088996015 -0.04749729 -0.0015759234
000230 40 df a4 3e 54 ff 55 be 77 71 82 be 8a 00 80 bd
       0.32201576 -0.20898181 -0.25477192 -0.06250103
000240 56 41 20 bd 92 1b 86 be 57 16 5b 3e 26 14 da bd
       -0.03912481 -0.2619291 0.2139524 -0.10648374
000250 19 1c 89 bd 5b 4f d2 bd 14 a1 a5 3d 22 a8 a6 3d
       -0.06694812 -0.10269042 0.08087364 0.081375375
000260 95 14 4b 3e 5f d3 9a 3e 3d 3f a5 be 9f 84 1b 3e
       0.1983207 0.30239388 -0.3227481 0.1518731
000270 03 3e 90 be 94 a9 8b 3e 7e d4 7e 3c d9 b8 21 bd
       -0.2817231 0.27277815 0.015553592 -0.039482925
000280 02 fd 0a be 1d 46 90 3e 48 d0 2a be fe f5 db 3d
       -0.13573077 0.28178492 -0.16681015 0.10740279
000290 8b 50 44 3d f8 f5 d6 be b8 f6 d3 3d d6 02 3f bd
       0.047928374 -0.41984534 0.10349792 -0.046633564
0002a0 57 a3 a1 3d 5a 4f f1 be a7 c4 7c 3e a7 23 7a 3e
       0.07892483 -0.47130853 0.24684392 0.24427663
0002b0 f2 08 cf 3d 8f 1d 90 3e 3d 5f dd bc 7b da 71 3c
       0.10109128 0.2814755 -0.027022952 0.014761562
0002c0 f8 99 07 3e 86 ae bb 3d 21 aa ad bb 33 ff cb be
       0.13242328 0.09164147 -0.005299822 -0.3984314
0002d0 1a b6 0b be c5 03 01 bd 3c 1d 9d 3d dc e4 b2 bd
       -0.13643685 -0.031497736 0.07671592 -0.08735058
0002e0 73 55 36 3e ff bc f9 3d 2d 2e 9e 3e 88 41 1c be
       0.17806034 0.12194251 0.30894604 -0.15259373
0002f0 cd 80 37 3e d2 f8 02 3d b9 bd 9f bd 89 86 42 3e
       0.17920227 0.031975575 -0.077998586 0.18996634
000300 58 85 80 be ee da b9 bc 0f d4 11 be f2 5f 2b 3e
       -0.25101733 -0.022687402 -0.1424105 0.16735819
000310 e2 ac 92 3c 5a c2 89 bd de 2c d0 38 25 e2 f9 bd
       0.017904703 -0.06726523 9.92657e-05 -0.12201337
000320 cc 25 6c be bc 93 c9 bc d7 c3 08 3e 9a c2 1b be
       -0.23061293 -0.024606578 0.13355957 -0.15210953
000330 37 2c e2 3d 61 47 32 3e bf d8 2b be 3c a5 d7 bd
       0.110435896 0.17410041 -0.16781901 -0.10529563
000340 c9 5d 72 3d f6 c4 0d be 76 65 e6 3d 83 11 0b bd
       0.05917147 -0.13844666 0.11249821 -0.033952247
000350 f4 75 87 be f6 3e 83 3d d1 12 66 3e 5e e9 73 3e
       -0.2645718 0.06408493 0.22468115 0.23819491
000360 eb a4 f4 bd 3c 91 01 be 39 ab 4a bd 58 c8 6c 3e
       -0.11945518 -0.12653059 -0.049479697 0.231233
000370 6e 88 f7 3c 62 fb dd bd e1 72 15 3d 94 35 c9 3d
       0.030216422 -0.10838963 0.03648651 0.09824672
000380 52 37 8c 3e 3b 7f d0 bd d7 fb 90 3e 3f db da bd
       0.27385956 -0.10180517 0.2831714 -0.10686349
000390 e3 0b a3 bd 07 0f 92 3d 89 0a 12 be 94 7b 89 3c
       -0.079612516 0.071317725 -0.14261831 0.01678256
0003a0 ea 54 8a 3d 97 3a 72 3e 22 d5 46 bd e9 90 9b 3d
       0.06754477 0.23655163 -0.048543103 0.07595999
0003b0 e7 db ac bd 0d 85 1d bd e2 d8 7f bd 8f 32 54 3d
       -0.084403805 -0.038456965 -0.062462695 0.05180603
0003c0 85 5f 25 3e 8b 00 9c bd a9 91 17 3e 5e d7 2f 3e
       0.16149719 -0.07617291 0.14801659 0.17172
0003d0 d8 bb ed 3d 2d c2 a2 3d f6 8e e0 3c 1a a5 1f be
       0.11608094 0.07947192 0.02741192 -0.15590325
0003e0 7b d3 af 3d c6 72 6d be 66 e2 2a 3e 0d 08 50 3e
       0.085852586 -0.23188314 0.16687927 0.20315571
0003f0 b0 48 cb be be 23 d4 bd 5c e0 6d 3d 1d ce 63 be
       -0.39703894 -0.1035838 0.058075294 -0.22246595

network_body._body_endoder.seq_layers.2.bias f4 [64]
000000 17 95 dd 3c 0e 7b 20 3e b7 2f 57 3e 0a 19 8c 3d
       0.02704863 0.15671942 0.21014296 0.06840713
000010 48 6e 86 3d c3 0d aa 3d 88 78 4e 3d 44 b9 8c 3e
       0.06564003 0.08303406 0.050407916 0.27485096
000020 51 36 6d bc 8f 67 b7 3d 74 76 a6 3d fc 2f 3e 3c
       -0.014478282 0.08955299 0.08128062 0.01160812
000030 75 72 84 3d 27 5c 0f bd 4d 88 18 3e f0 53 6b 3d
       0.064671434 -0.034999993 0.14895745 0.057453096
000040 ce 5c 7f 3d 36 91 dd 3d d7 e1 53 3d c6 30 89 3d
       0.062344365 0.108187124 0.05172905 0.06698756
000050 34 79 d3 3c fc ff 41 3d e6 bd f7 3c a0 e7 53 3d
       0.02581463 0.047363266 0.030241918 0.051734567
000060 0a 44 10 3d ec 50 be 3d 88 1d 27 3d 08 30 c2 3d
       0.035221137 0.092927784 0.040799648 0.094818175
000070 b8 46 2a 3e 85 16 b2 3d 05 91 65 3d 45 53 3b 3c
       0.1662854 0.086957015 0.056046505 0.011433427
000080 f4 90 5b 3c ec 91 a4 bc 96 10 be bc 0d 31 b8 3d
       0.013401259 -0.020089112 -0.023201268 0.08993731
000090 00 05 90 3d b0 7d 31 3d a4 72 38 3e a2 9a 45 3e
       0.07032204 0.043332756 0.18012482 0.19297269
0000a0 58 c9 65 3d 5b 60 a1 3c dc 58 32 3e ca 3e 26 3e
       0.05610022 0.019699266 0.1741671 0.1623489
0000b0 f9 20 14 3d 43 de a5 3d 42 c9 d0 3d e6 76 15 3e
       0.036164258 0.08099034 0.10194637 0.14596137
0000c0 d4 75 70 3e 94 b0 51 3e 32 70 41 3e b7 d8 f6 3d
       0.23482448 0.20477515 0.18890455 0.12053054
0000d0 e9 00 21 3e ea b2 27 3e f0 be 00 3e 5e c8 2e 3e
       0.15723003 0.16376844 0.12572837 0.17068622
0000e0 b3 8d 30 3e c9 f8 fd bd 17 f5 00 3e c5 08 9a 3c
       0.17241554 -0.12400968 0.12593494 0.01880301
0000f0 90 7a 3d bb ae e0 db 3d 58 00 42 3e 29 0e c7 3d
       -0.0028912164 0.107362136 0.18945444 0.09719498

action_model._continuous_distribution.log_sigma f4 [1, 3]
000000 a0 be bc be f5 1a 93 be 55 7a fe be
       -0.36864185 -0.28731504 -0.49702707

action_model._continuous_distribution.mu.weight f4 [3, 64]
000000 74 44 72 bc 12 23 89 3c db 6f 7e bc 24 a0 de 3d
       -0.014786828 0.016740356 -0.015529598 0.10870388
000010 e0 9b a1 bc 8d ce ae 3c 02 f5 93 bd 7c 66 20 bc
       -0.019727647 0.021338725 -0.07224466 -0.009790059
000020 b4 07 44 bd e3 c9 b3 3c 18 f0 f5 3d 4d 52 33 bd
       -0.04785891 0.021946853 0.12008685 -0.04377966
000030 fb db 3b 3c 48 fc a2 3d 98 68 3c bb 23 93 bc 3d
       0.011466022 0.07958275 -0.0028748866 0.092077516
000040 7b 1d 19 3d 97 95 09 3e a8 dd 1a bd d9 68 6f 3d
       0.03738163 0.1343597 -0.037809044 0.0584496
000050 cb 3a 32 3d 4f 6b 93 bb 34 88 9d 3d 6c d8 88 3d
       0.0435131 -0.004498876 0.07691994 0.06681904
000060 cd 12 cb 3d f3 05 ee bc 75 b0 81 3c 2d 88 21 bd
       0.09915695 -0.029055571 0.015831212 -0.039436508
000070 76 cc 0f bd 26 aa 0a 3e b0 89 05 bd 3a 6b 88 bd
       -0.0351071 0.13541469 -0.032602012 -0.06661077
000080 2e a3 c3 bd 98 67 84 3c eb 08 15 3c 41 51 bb bd
       -0.095526084 0.016162679 0.0090963645 -0.09146357
000090 16 1b c3 bd c7 cb 6c bd e2 16 87 bb 11 a4 f4 3c
       -0.095266506 -0.057811525 -0.004122601 0.02986339
0000a0 c5 3c 0a 3d 88 7d bb 3d 65 86 54 3c bb bb 8c 3b
       0.03374936 0.091548026 0.012971495 0.00429484
0000b0 e3 f7 0a 3e b1 9b 64 3c 41 2a 65 bc d9 5f 30 3c
       0.13571124 0.013953135 -0.013987125 0.010765039
0000c0 4f 2c 8c bd 6b 8e 3f bc 3b a7 93 3c 4a 49 11 bd
       -0.06844389 -0.01169167 0.018024078 -0.035470285
0000d0 1e 94 6a 3d f3 fb 0b bd 19 c6 c5 3c 0e a7 01 3d
       0.05727016 -0.034175824 0.024142312 0.031653456
0000e0 5f 30 34 3c b9 fc 72 3d ef ca d7 bb 47 42 f4 ba
       0.010997861 0.059323046 -0.006585471 -0.0018635475
0000f0 2a 9c d3 bd b9 3c bd 3d 15 a0 31 bd c0 e8 ad bd
       -0.1033252 0.092400976 -0.043365557 -0.08491659
000100 2d 46 c8 3a ad 7b 82 bd cd 4f 07 3d 5c af 4f 3d
       0.0015279703 -0.063712455 0.03303509 0.050704345
000110 bb bb 6d bd 4c a8 c0 3c 6f 48 bc bd e9 91 d3 3b
       -0.05804036 0.02351775 -0.09193503 0.006456603
000120 00 87 d6 bd 68 65 f1 3d 50 af 30 bd df 5a 29 3c
       -0.10474968 0.1178692 -0.04313594 0.010336607
000130 4c e5 81 bd 90 d9 38 3c 4d 84 6b bb a0 b6 fa bb
       -0.06342563 0.01128234 -0.0035937012 -0.007651165
000140 cd 3f 01 bd 88 bd 56 bd d7 16 4f 3d 70 27 3f bd
       -0.031554986 -0.052426845 0.05055889 -0.04666847
000150 71 cc 47 3d c5 3e 00 bd dd f9 1d bd f8 be 71 3d
       0.048778955 -0.03130986 -0.038568366 0.059020013
000160 73 f4 7f 3c f5 e7 e5 bc a3 07 48 3c ec fb 64 3d
       0.015622246 -0.028064707 0.012208852 0.055904314
000170 bb 29 01 3d 6f fd 25 3d b9 43 01 3d 04 a2 8e 3d
       0.031533938 0.040524896 0.031558726 0.06964496
000180 ad fd c0 bd 18 c8 68 bd 36 a4 29 3d 2d 04 05 bd
       -0.09423385 -0.05683145 0.04141637 -0.032474685
000190 19 5b 21 3c 7b 3d d5 bc ca 22 c1 bc b9 02 25 3c
       0.0098483795 -0.026030293 -0.023576159 0.01007145
0001a0 63 08 a3 3b 4f 97 ae bc 64 a0 15 3d 15 2f 82 ba
       0.004975365 -0.021312384 0.036529914 -0.0009932244
0001b0 82 39 84 3d 16 99 f4 3d ad f4 d6 3d d1 87 9f 3c
       0.06456281 0.11943261 0.10495887 0.019473942
0001c0 16 bb b0 3c 5b 0e 02 3b 23 23 23 3d df b6 4e bd
       0.021573585 0.0019844982 0.03982843 -0.05046737
0001d0 63 d3 70 3d 08 01 ad bd 14 b0 12 bd 16 b8 ec bc
       0.058795344 -0.08447462 -0.035812452 -0.028896373
0001e0 44 23 12 3d 74 2a d5 bc f2 df af bc ed a5 91 bc
       0.035678163 -0.02602122 -0.02146909 -0.017779315
0001f0 20 f8 fa bd 0b d0 4f 3d 74 30 10 bd 03 db 0a bc
       -0.12254357 0.050735515 -0.03520246 -0.008475068
000200 71 e9 89 bd c7 68 16 3e 79 06 01 3c 64 ca ca 3c
       -0.067339785 0.14688407 0.007875078 0.02475471
000210 46 e2 9a bd 50 48 02 bc 46 9f 02 bd b9 8d 0f bd
       -0.075626895 -0.007951811 -0.031890176 -0.035047267
000220 6d f4 b1 bc 36 38 51 3d c3 25 81 bb 4f 2f 21 3e
       -0.021722997 0.051078998 -0.003941269 0.15740703
000230 2b 0b fd 3d a1 a4 84 3d 7e c1 7b bd 53 33 ea 3d
       0.12355646 0.06476713 -0.061463825 0.114355706
000240 11 89 6e bd e5 05 cc 3c 2e 07 5f bb f4 82 80 ba
       -0.058236185 0.024905154 -0.003403138 -0.0009804652
000250 7e 8b d9 3d 72 85 ca bb 97 e3 2f 3d f3 19 a0 bd
       0.10622309 -0.0061804587 0.042941656 -0.078174494
000260 f2 1a c9 bc 51 6b 4e bb c1 7f 5d bc de 35 6d bd
       -0.024548981 -0.003149707 -0.013519228 -0.0579127
000270 36 73 f9 3c 10 3d a7 3d e5 e4 63 bd 43 84 3a 3c
       0.030450445 0.081659436 -0.055638213 0.011384073
000280 84 06 81 3d 13 ec aa bd 87 6a ca 3d de 4e 92 3d
       0.06300071 -0.08345809 0.098836 0.07143949
000290 b4 1c fc bd 2d 9e eb bd 4c ed 09 bd 73 8f 9b 3d
       -0.12310162 -0.11504779 -0.03367357 0.0759572
0002a0 ec ca 85 3d 25 5b 3e bd 91 18 f0 bc bc e4 94 bd
       0.06532845 -0.04647364 -0.02930859 -0.0727019
0002b0 d9 bc f6 3b 29 c9 60 bc e9 f6 68 bc 20 a4 9a bc
       0.0075298366 -0.013719835 -0.014219024 -0.018877089
0002c0 0f 15 7a bc 2e 56 9e 3c e9 1c 46 3c 2f 6d 15 bd
       -0.01526381 0.019328203 0.012091854 -0.03648108
0002d0 3e 41 26 bd b6 6f 69 bd ee f5 81 bd 9a 16 ee 3c
       -0.040589564 -0.0569913 -0.063457355 0.029063512
0002e0 45 75 21 3d 30 b7 63 bb 71 a6 b9 bc 52 80 2a bd
       0.039418478 -0.003474664 -0.022662373 -0.041626282
0002f0 84 53 2b bd 85 32 f8 3c ad 86 12 bd 8e cd 07 bd
       -0.041827694 0.030297527 -0.035772968 -0.033155017

action_model._continuous_distribution.mu.bias f4 [3]
000000 92 cc 0e 3d 72 d4 a9 bb 20 91 4a 3c
       0.034863062 -0.005182796 0.012363702

action_model._discrete_distribution.branches.0.weight f4 [2, 64]
000000 a6 11 ce ba e7 c6 69 3d cc bf 89 3e 2a 58 06 be
       -0.0015721812 0.057074454 0.26904142 -0.1311957
000010 0e e5 b8 bd e9 c2 ab 3e 3f e9 af be f5 9d 18 3e
       -0.09028064 0.33547142 -0.3435764 0.14904006
000020 b3 e3 a0 be 16 83 96 3e ca 90 26 be e5 7e aa bd
       -0.3142372 0.29396886 -0.1626617 -0.083249845
000030 25 46 93 be ff 67 68 be 6c a7 e2 bd 92 9a 02 be
       -0.28764454 -0.22695921 -0.110670894 -0.12754276
000040 f4 a2 a8 be 79 77 61 bd 0a dd e8 bd 21 4f b2 3e
       -0.32936823 -0.05504558 -0.11370285 0.34825996
000050 fe e0 91 be 96 53 ea bd 6c b2 0c be da 13 37 bd
       -0.28491968 -0.11441724 -0.13739938 -0.044696666
000060 56 de f1 3e 7d 3e 0e 3e ff 82 01 3e f8 da 18 bd
       0.4723994 0.13891025 0.12647627 -0.0373182
000070 a8 c4 c1 3e 7e 01 38 be 45 3b 08 3d 8c 7c 29 3e
       0.3784535 -0.17969319 0.03325965 0.16551417
000080 cc e3 9d be ee 76 a7 be d6 4f 13 be 85 32 b7 3e
       -0.30837858 -0.32707924 -0.14385924 0.3578073
000090 5d ce 5b bd 77 5b ea 3e 90 02 53 3e 11 af 24 3e
       -0.0536636 0.45772907 0.20606446 0.16082408
0000a0 19 82 9d be b3 42 9c be 24 6b 9b 3e 74 10 9f 3d
       -0.3076332 -0.30519637 0.3035518 0.0776681
0000b0 5b 5a a2 3d 3e 88 ab 3d 4a ae 8d 3e df da 6a 3e
       0.0792739 0.083755955 0.27672035 0.22935055
0000c0 2d 27 83 3e 63 e0 25 3e d4 9b d4 3d 9a 47 26 3e
       0.25615826 0.16198878 0.10381284 0.16238251
0000d0 a6 36 8a 3d 94 01 a5 3d 80 ac 99 3e ea 33 ee 3d
       0.067487046 0.08056942 0.3001442 0.116309956
0000e0 68 85 f2 3d 2d 80 46 be fa d3 8d 3d 94 96 f0 3d
       0.118418515 -0.19384833 0.06925197 0.117474705
0000f0 4a 2d a7 be 35 9c 33 be d7 65 70 3e 19 15 f9 3e
       -0.3265174 -0.17540057 0.23476349 0.4864891
000100 72 8e a9 bc 56 38 47 bd 64 8a 97 be fe 39 06 3e
       -0.020697806 -0.04863771 -0.2959777 0.1310806
000110 0e df 69 3d 73 7d b0 be 82 b4 af 3e e9 8d 30 be
       0.057097487 -0.3447071 0.34317404 -0.17241634
000120 c9 95 ab 3e 3a c9 8e be 7d 29 27 3e 6b 95 c6 3d
       0.33512715 -0.278879 0.1632442 0.09696468
000130 14 e9 8f 3e 1b 0b 59 3e 13 9c eb 3d 63 53 0d 3e
       0.28107512 0.21195643 0.11504378 0.13801341
000140 81 9c b1 3e d2 f0 a4 3d 9f a5 ca 3d c0 0d b4 be
       0.34689716 0.08053745 0.09894871 -0.3516674
000150 6f ee 86 3e 02 5d 01 3e ee 55 0c 3e a3 95 36 3d
       0.26353785 0.12633136 0.13704655 0.0445763
000160 d6 b6 f1 be 8e d3 0f be 9f 83 0c be fd 6c b6 3c
       -0.47209805 -0.14045545 -0.13722084 0.022268767
000170 42 22 ba be f2 b4 4a 3e c1 6e 09 bd 9a ef 25 be
       -0.36354262 0.19795588 -0.03355289 -0.16204682
000180 bd 4e a0 3e 29 36 ae 3e 88 c7 08 3e 06 4e ca be
       0.31310073 0.34025696 0.13357365 -0.39512652
000190 01 da 55 3d d6 a1 dd be ff ed 48 be dd 7c 1c be
       0.052209858 -0.43287534 -0.19622038 -0.15282007
0001a0 5b 4e 97 3e 90 8f 93 3e bb 25 9d be 00 40 b2 bd
       0.29551968 0.28820467 -0.3069285 -0.08703613
0001b0 ff d1 75 bd ba a1 cd bd 48 b2 8b be 59 3f 81 be
       -0.06001472 -0.100406125 -0.27284455 -0.25243643
0001c0 a0 40 7e be d8 58 2e be 44 87 ba bd 62 eb 1c be
       -0.2482934 -0.17026079 -0.09107831 -0.15324166
0001d0 01 d8 8d bd be 4a b6 bd fb 7f 9b be af 64 d1 bd
       -0.06925965 -0.08900975 -0.3037108 -0.10224282
0001e0 59 66 e6 bd 1b d8 32 3e 8c 4c ac bd 08 42 d8 bd
       -0.1124999 0.1746525 -0.08413038 -0.105594695
0001f0 4c f5 a4 3e a1 15 34 3e e5 37 6b be 43 c8 f7 be
       0.32218397 0.17586376 -0.22970541 -0.48394975

action_model._discrete_distribution.branches.0.bias f4 [2]
000000 38 cc 6a 3d 6f cb 6a bd
       0.057323664 -0.057322916

action_model._discrete_distribution.branches.1.weight f4 [2, 64]
000000 93 36 a3 3e 4a d6 c7 3d 42 79 18 3e a7 04 8e 3e
       0.31877574 0.09757669 0.14890006 0.27737924
000010 b8 cd c4 3e 3f 01 4e 3e 76 2a f1 3d 2d d0 6e 3e
       0.384382 0.20117663 0.11775677 0.233216
000020 f5 06 c3 3d 12 5c ce 3d 1c 25 a4 3d 59 c3 e3 3d
       0.09522811 0.10076155 0.080148906 0.11121244
000030 34 0f 63 3d 4e c1 ca 3d e5 f1 c2 3e 6f 51 6c 3e
       0.05543442 0.09900151 0.38075176 0.2307794
000040 11 90 46 3e 50 88 61 3e 43 5f 1c 3e 78 71 48 bd
       0.19390894 0.22024655 0.15270714 -0.048936337
000050 02 a0 43 3e 58 60 80 3e 4d 38 2a be 51 16 6b bd
       0.19104007 0.25073504 -0.1662304 -0.05739433
000060 41 2d 6f 3d 93 5c c3 3e 28 c9 4d 3d 4f 1b bb 3e
       0.058392767 0.38156566 0.050240666 0.36544272
000070 a3 50 ab 3e c4 f5 d4 ba 08 02 33 3e 87 29 88 bd
       0.33459958 -0.001624756 0.17481244 -0.06648546
000080 ac f3 8a be 72 61 16 3e 0d 5f 42 be 28 80 a0 3b
       -0.27139032 0.1468561 -0.18981571 0.00489809
000090 d2 1e 24 3e c1 37 4b 3e b7 1d cb 3e 1f 87 5e 3e
       0.16027382 0.19845487 0.39671108 0.21731232
0000a0 31 79 44 bc db ef df bd c8 55 8a 3e f1 3c cb 3e
       -0.011991785 -0.10934421 0.2701857 0.39694932
0000b0 6d 1b c5 3d 77 9e d4 3b 69 5d 53 3e 4b cc 56 3e
       0.09624372 0.006488617 0.20641102 0.20976369
0000c0 da bf a0 3e 6b 19 40 3d 7d c6 47 3e 8e 2b 6e 3e
       0.3139637 0.04689924 0.19509311 0.23258802
0000d0 10 9c c4 3e 30 60 8e 3e 23 fa cc 3b 64 7a eb 3e
       0.38400316 0.2780776 0.0062554046 0.45991814
0000e0 d3 11 c7 3d 51 69 a0 be 35 60 af 3e 8f e7 6a 3e
       0.097201966 -0.3133035 0.34253088 0.22939895
0000f0 2f bf 14 3e 8e 64 16 3e d4 27 ee 3e 9f 85 34 3e
       0.14526056 0.14686796 0.4651476 0.17629097
000100 c0 ac a1 be 97 da c2 bd 68 a7 14 be 1c f9 97 be
       -0.3157711 -0.09514349 -0.14516985 -0.29682243
000110 33 1a c6 be a4 b5 33 be 92 9a 0f be db c6 84 be
       -0.38691863 -0.17549759 -0.14023808 -0.25932965
000120 15 37 02 be 69 3e d8 bd 78 b4 bd bd 63 38 e9 bd
       -0.12716325 -0.10558779 -0.09262937 -0.11387708
000130 8c fe ba bd ab 6c 5a bd 59 a8 b9 be 98 3c 54 be
       -0.09130582 -0.05332629 -0.36261252 -0.2072624
000140 72 d1 37 be 7f e5 7a be 6c 58 2d be e0 ea 96 3d
       -0.17950991 -0.24501608 -0.16928262 0.073690176
000150 a1 fc 2a be 67 5e 64 be a9 36 1e 3e 3e a4 02 3d
       -0.16697933 -0.22301637 0.15450539 0.031894915
000160 8d 1d b0 bd 77 4a c0 be 1a df 83 bd 6d c3 b6 be
       -0.08599386 -0.37556812 -0.064390376 -0.35695973
000170 60 41 9d be d3 cd 0d 39 3f 88 4b be 03 45 a0 3d
       -0.3071394 0.00013523483 -0.19876193 0.07825663
000180 bb c7 91 3e f2 50 04 be 95 57 57 3e 17 f7 b0 bc
       0.28472695 -0.12921503 0.21029504 -0.021602197
000190 b4 a6 39 be 9b 0c 4b be 55 1b d7 be a2 fd 45 be
       -0.18129998 -0.19829027 -0.4201304 -0.19335034
0001a0 fb a3 8e bc d8 a0 da 3d bf 8e 86 be 69 a7 c9 be
       -0.017412176 0.1067521 -0.26280782 -0.39385536
0001b0 f0 54 91 bd 1d 9d 8d bb 68 68 44 be 0b bf 5c be
       -0.07096279 -0.004321708 -0.19180453 -0.21557252
0001c0 43 90 97 be 79 7b 90 bd 11 5d 5e be fc e9 63 be
       -0.2960225 -0.070548005 -0.2171519 -0.22257227
0001d0 34 79 c9 be 81 d0 87 be 0a 92 9d bc 24 92 df be
       -0.39350283 -0.26526263 -0.019234676 -0.43666184
0001e0 37 13 d5 bd 1a 05 b0 3e 46 9b b9 be ef b2 7e be
       -0.104040556 0.34378892 -0.36251277 -0.24872945
0001f0 83 69 1a be ae 71 0c be 81 0f e1 be 00 5e 2a be
       -0.15079312 -0.1371524 -0.4395714 -0.1663742

action_model._discrete_distribution.branches.1.bias f4 [2]
000000 9a 4e d5 3e 43 43 d5 be
       0.4166153 -0.4165288

action_model._discrete_distribution.branches.2.weight f4 [2, 64]
000000 d8 97 0c 3d 06 f6 b5 3e 8a 15 b2 3e 88 07 e5 3d
       0.034324497 0.35539263 0.34782058 0.11183077
000010 39 22 e1 3d 9f 9a 9c 3d bf ed 30 be e6 b9 ff 3e
       0.109928556 0.07646679 -0.17278193 0.49946517
000020 da 89 90 be 7e a9 27 3d 7b b8 f6 bd 37 a7 9b bd
       -0.28230172 0.040933125 -0.120469056 -0.07600253
000030 b4 23 cd be 87 6b a1 bc cb 91 e1 3d bc b1 56 be
       -0.40066302 -0.019704593 0.11014136 -0.20966238
000040 79 1e 2c be 00 e1 18 3e 80 5f aa be 5e 85 43 3e
       -0.168085 0.1492958 -0.33275986 0.19093844
000050 59 72 92 be c7 d9 9e 3d 0f 0b dd be ba 87 48 be
       -0.28602865 0.077563815 -0.431725 -0.19583026
000060 4a 02 41 3e 62 e0 05 3e 7c cc c2 be 7e 3d 78 3d
       0.1884853 0.13073877 -0.38046634 0.06060552
000070 a0 48 b8 3e ea 21 01 be 87 9d 99 3e 7c af 2e bd
       0.35992908 -0.12610593 0.30002996 -0.042647824
000080 2a b7 aa be d9 9d 3c be cb d2 33 be 88 e6 47 be
       -0.33342868 -0.18419589 -0.1756088 -0.19521534
000090 3c 0c 57 bd bc 7c 61 3e 12 d7 ec 3d 51 08 a1 3e
       -0.052501902 0.22020239 0.11564459 0.31451657
0000a0 6b 15 31 be 5f b5 78 be 0e 7b 2d 3e 2d ae 18 3e
       -0.17293327 -0.24287938 0.16941473 0.14910193
0000b0 1d e9 51 3d 2b 77 76 3b e2 88 0c 3e 32 76 95 3e
       0.051247705 0.003760765 0.13724092 0.29191738
0000c0 7e 31 b6 3d ec 9d d7 3e f6 e9 6a 3e 86 20 f6 3d
       0.08896159 0.42112672 0.22940812 0.12017922
0000d0 14 83 e2 3e 7b 54 fb 3e d3 5d a3 3d 9e d0 6a 3d
       0.4424063 0.4908789 0.0797688 0.05732786
0000e0 d3 54 4b 3d da 97 d0 3c d3 97 a7 3e f7 e6 92 3e
       0.04964144 0.025463033 0.3273302 0.28691837
0000f0 b3 15 c1 be 9b 55 3e 3d f3 65 dd 3e cf 03 d0 3e
       -0.37711868 0.04646836 0.43241844 0.40627906
000100 63 e1 9a bb f0 0e b2 be 21 18 aa be 68 f3 c8 bd
       -0.004726575 -0.3477702 -0.33221534 -0.09812051
000110 09 0b ec bd b8 b9 c1 bd a2 b2 4a 3e 87 be ed be
       -0.11525542 -0.09459251 0.19794706 -0.46434423
000120 3d d3 90 3e 0a a3 00 bd 23 d4 22 3e 85 2e 51 3d
       0.28286162 -0.031405486 0.15901236 0.051069755
000130 f2 7a cc 3e d7 f0 bf 3c 5c e5 da bd 45 3f 67 3e
       0.3993755 0.023430271 -0.10688278 0.22582729
000140 22 e5 35 3e f7 49 19 be 5a 86 a3 3e d2 e9 39 be
       0.17763188 -0.14969622 0.3193844 -0.18155602
000150 70 6d 88 3e 4c d2 82 bd 47 f9 df 3e e6 bb 1f 3e
       0.26645994 -0.06387767 0.4374487 0.15599021
000160 41 a0 2b be f8 13 10 be e7 59 be 3e 0e 1a d0 bd
       -0.16760351 -0.14070117 0.37177965 -0.101612195
000170 6c 45 c9 be de b3 e5 3d 64 f9 94 be 8b c2 89 3c
       -0.39310777 0.112159476 -0.2909652 0.016816398
000180 a1 0d b3 3e 47 80 32 3e 8f 28 4b 3e 19 22 35 3e
       0.34971336 0.17431746 0.1983969 0.17688788
000190 36 f1 94 3d d6 d4 72 be 8b c1 e4 bd 7a 5d a1 be
       0.0727257 -0.23714003 -0.11169728 -0.3151663
0001a0 72 e6 2a 3e 8e ec 7d 3e 0b ac 53 be be c6 11 be
       0.1668947 0.2479727 -0.20671098 -0.1423597
0001b0 76 51 bb bd 5e 0e af 3c 85 fe 0b be 5c 70 a1 be
       -0.09146397 0.021369155 -0.1367131 -0.31531036
0001c0 8f a6 7d bd f3 cb db be 54 98 5d be 83 d7 1a be
       -0.06192642 -0.42929038 -0.2164014 -0.15121274
0001d0 b0 33 e4 be 96 03 f1 be 42 82 7e bd d3 65 91 bd
       -0.44570684 -0.47073048 -0.062135942 -0.070994996
0001e0 2c 26 c0 bc f6 72 99 bb 3d af ac be 50 8c 96 be
       -0.023455702 -0.004682894 -0.33727446 -0.29403925
0001f0 a8 b6 c5 3e cd d3 a0 bd e1 54 cd be b3 20 da be
       0.38615918 -0.07852898 -0.4010382 -0.42603073

action_model._discrete_distribution.branches.2.bias f4 [2]
000000 a3 ef 6f 3d 0a ee 6f bd
       0.058578145 -0.05857662

onnx::Div_102 f4 [17]
000000 47 64 8d 40 bb a8 8c 40 c9 ec 8e 45 15 af 14 3f
       4.418491 4.395597 4573.598 0.58079654
000010 1d 3a 15 3f b1 8c 01 43 96 26 67 43 5d 15 9b 42
       0.582918 129.54958 231.15073 77.541725
000020 96 26 67 43 4d 8a c4 42 96 26 67 43 06 35 aa 42
       231.15073 98.27012 231.15073 85.10356
000030 1e 82 d7 3e 32 f5 8c 3e 10 13 97 3e 6a f2 88 40
       0.4209146 0.2753082 0.2950673 4.2795916
000040 e7 97 88 40
       4.268543
